Project1-Navigation/ddqn.pth (torch_old, 28415 bytes, 6 tensors)

fc1.weight f4 [64, 37]
0.002377878 -0.021320265 -0.16369234 -0.08715631 0.048323404 0.09139506 -0.78625613 0.09925986
-0.24428183 -1.6381664 0.11906089 -0.007908548 -0.18296498 0.09176119 0.1481824 -0.05682762
-0.08257856 -0.0066587455 -0.10579097 0.078067236 -0.007974346 -0.005950429 -0.006390961 0.0295978
-0.120189935 -0.07531287 0.10947546 0.040409796 0.10140717 -0.37754238 0.0015649877 -0.04051229
-0.001526584 -0.19093154 -0.17168094 -0.023808826 0.057261918 0.10592193 0.044504624 0.13938467
0.19881614 0.21862951 -0.0012640839 -0.0004992638 0.039703265 -0.24268737 -0.37533104 -0.08209464
0.013431833 0.03045687 -0.08119736 -0.1225192 0.0061959373 0.1606028 0.09407286 0.010785692
-0.13953677 -0.07154988 0.22809361 0.13107772 -0.024350194 -0.32059994 -0.006768696 0.202885
0.081640095 -0.028489288 -0.11602743 -0.05791162 0.15080018 0.014115425 -0.41494673 -1.141495
-0.059934072 -0.007347863 -0.066846594 0.07450368 -0.0074509312 0.16092674 -0.15307483 -0.11547487
0.028306808 -0.03172166 -0.05962314 -0.31102327 -0.07553306 0.07548912 0.20252244 0.09249773
-0.109641425 0.053022757 -0.1715938 -0.072296344 0.031286884 0.2643259 -0.11360846 0.08034797
0.0791336 0.108819164 0.14670376 0.038335595 -0.010916332 0.11349526 -0.08713384 -0.094623394
0.046274394 -0.1742902 -0.1432045 0.15895867 0.22975586 -0.0013578376 -0.015569116 0.08657814
-0.28888556 -0.009712684 -0.06090664 -0.2904168 0.075735666 -0.56546116 0.035041757 -0.20238812
0.23935956 0.0023043323 -0.060113866 -0.12936246 -0.13489223 -0.092390835 0.15156662 0.036041576
-0.1001925 -0.16054899 0.048905503 -0.22535238 0.047091514 0.13435419 -0.13361008 -0.3395529
-0.22577195 0.05820583 -0.042370636 -0.09263188 -0.07351727 -0.12800197 -0.22521973 0.2221143
-0.08102389 -0.44794646 -0.031303465 0.033121496 0.06872193 -0.12551573 -0.05556159 -0.2008888
-0.1484557 -0.09341617 -0.011714668 0.17770946 0.35431543 0.051828597 -0.10154596 0.015178231
0.13956635 0.14670068 -0.031022279 -0.019772524 0.024932649 0.091289245 0.18906921 0.10065969
0.023186848 0.092470884 0.056703568 0.03874091 -0.13766609 -0.03976434 -0.021658735 0.08164203
0.11250028 -0.13663031 0.0896475 0.24934949 -0.30061868 -0.098431475 -0.124961875 -0.10521356
0.010467105 -0.089717 0.12107226 0.03347757 -0.12761182 0.17542449 -0.13561748 -0.16928615
-0.13369682 -0.0230415 0.14382462 -0.101422295 -0.006842097 -0.011998199 -0.0094492715 0.07583288
-0.01849279 -0.096001446 -0.17907989 -0.18865989 -0.21169454 0.002706315 -0.14890857 -0.10382477
-0.120156795 -0.03435526 0.056848872 0.051603176 -0.16229776 -0.17903177 -0.110223085 0.08208254
0.1726957 -0.0262139 -0.011092002 -0.112570845 -0.10236833 -0.10940322 -0.116914965 -0.14809147
0.11405863 -0.22595702 -0.2047085 0.10175306 -0.33273393 -0.26240703 0.22969939 0.01568404
0.07131718 -0.06499814 -0.21614882 0.04036948 -0.08369305 -0.05662514 -0.09732412 0.2023101
-0.17953603 0.045913473 0.2785767 -0.18011071 -0.12644325 -0.2655641 0.01335977 0.14444366
0.22189839 0.01944062 -0.14736411 -0.22361563 -0.111645095 -0.08152678 -0.101776876 -0.4933388
00000000: 2cd6 1b3b d6a7 aebc f79e 27be 027f b2bd
00000010: c3ee 453d 552d bb3d 1548 49bf c148 cb3d
00000020: 0425 7abe 70af d1bf 32d6 f33d db92 01bc
00000030: 2c5b 3bbe 4aed bb3d 21bd 173e 14c4 68bd
00000040: f31e a9bd 9b31 dabb f0a8 d8bd b7e1 9f3d
00000050: d5a6 02bc d1fb c2bb 446b d1bb 1677 f23c
00000060: 2426 f6bd a23d 9abd ac34 e03d be84 253d
00000070: 90ae cf3d 3c4d c1be 4620 cd3a 37f0 25bd
00000080: a917 c8ba 8f83 43be 21cd 2fbe ba0a c3bc
00000090: 798b 6a3d 99ed d83d 7b4a 363d dbba 0e3e
000000a0: 7596 4b3e 6ae0 5f3e 9eaf a5ba 07e1 02ba
000000b0: e49f 223d 0a83 78be 642b c0be 3c21 a8bd
000000c0: 3111 5c3c b080 f93c cd4a a6bd 59eb fabd
000000d0: 4a07 cb3b 0f75 243e 46a9 c03d 79b6 303c
000000e0: bae2 0ebe be88 92bd 5f91 693e 3d39 063e
000000f0: 0f7a c7bc ad25 a4be f0cb ddbb 16c1 4f3e
00000100: ec32 a73d 5e62 e9bc ca9f edbd bc34 6dbd
00000110: 5d6b 1a3e 6244 673c e673 d4be 821c 92bf
00000120: 6e7d 75bd 58c6 f0bb dee6 88bd 6395 983d
00000130: f126 f4bb fbc9 243e a6bf 1cbe 177e ecbd
00000140: aee3 e73c 92ee 01bd 6537 74bd 713e 9fbe
00000150: 14b1 9abd 0a9a 9a3d 0b62 4f3e 736f bd3d
00000160: af8b e0bd 642e 593d 49b6 2fbe 1b10 94bd
00000170: ad26 003d b955 873e 8dab e8bd 7a8d a43d
00000180: cc10 a23d 95dc de3d 8339 163e c905 1d3d
00000190: 6ada 32bc 3470 e83d 3a73 b2bd e9c9 c1bd
000001a0: 388a 3d3d 2179 32be 33a4 12be 10c6 223e
000001b0: 1f45 6b3e 78f9 b1ba 9b15 7fbc e14f b13d
000001c0: cfe8 93be f321 1fbc 3e79 79bd 83b1 94be
000001d0: 4d1b 9b3d 10c2 10bf f287 0f3d d53e 4fbe
000001e0: ac1a 753e 4804 173b f539 76bd 9877 04be
000001f0: 3021 0abe 6837 bdbd 4834 1b3e 55a0 133d
00000200: ba31 cdbd f466 24be 2351 483d c6c2 66be
00000210: 08e3 403d 2594 093e 15d1 08be e1d9 adbe
00000220: c330 67be 3d69 6e3d d58c 2dbd c8b5 bdbd
00000230: 3990 96bd f312 03be 00a0 66be ee71 633e
00000240: daef a5bd 3d59 e5be 1038 00bd 68aa 073d
00000250: 15be 8c3d 3287 00be 8d94 63bd cbb5 4dbe
00000260: c504 18be fa50 bfbd e1ee 3fbc 78f9 353e
00000270: d568 b53e 394a 543d 54f7 cfbd 1dae 783c
00000280: 7bea 0e3e b438 163e 6f22 febc fdf9 a1bc
00000290: 8e3f cc3c dbf5 ba3d 5c9b 413e ab26 ce3d
000002a0: 58f2 bd3c 6061 bd3d 0042 683d caae 1e3d
000002b0: 57f8 0cbe efdf 22bd a96d b1bc f033 a73d
000002c0: 8c66 e63d d1e8 0bbe 1c99 b73d 7955 7f3e
000002d0: b1ea 99be 7196 c9bd 03ec ffbd 357a d7bd
000002e0: 387e 2b3c 8cbd b7bd bcf4 f73d c71f 093d
000002f0: acac 02be 7aa2 333e 4fdf 0abe 5959 2dbe
00000300: d2e7 08be 87c1 bcbc c346 133e 7eb6 cfbd
00000310: ab33 e0bb 1894 44bc 1ed1 1abc 454e 9b3d
00000320: 317e 97bc 689c c4bd b860 37be 0f30 41be
00000330: 74c6 58be 6e5c 313b 7d7b 18be 15a2 d4bd
00000340: c414 f6bd 1ab8 0cbd 5dda 683d da5d 533d
00000350: 6231 26be 1b54 37be a4bc e1bd e41a a83d
00000360: 24d7 303e 88be d6bc 3abb 35bc 8b8b e6bd
00000370: 7da6 d1bd cc0e e0bd 1d71 efbd 4aa5 17be
00000380: 9297 e93d 4761 67be 1b9f 51be e963 d03d
00000390: 1a5c aabe 375a 86be 5136 6b3e d17b 803c
000003a0: be0e 923d bf1d 85bd 1e56 5dbe 785a 253d
000003b0: 4367 abbd c3ef 67bd de51 c7bd 612a 4f3e
000003c0: 4bd8 37be c40f 3c3d 9ba1 8e3e f16e 38be
000003d0: 577a 01be 05f8 87be f0e2 5a3c 0ae9 133e
000003e0: 5539 633e ef41 9f3c 9ee6 16be 7ffb 64be
000003f0: 2fa6 e4bd 83f7 a6bd 6570 d0bd e796 fcbe

fc1.bias f4 [64]
0.026448552 0.11777103 0.051947046 -0.01841562 -0.15693071 0.05699512 -0.16082738 0.12832384
0.11309145 0.0735774 -0.0696116 0.14506964 0.12757523 -0.10898172 0.104224995 -0.16890128
0.18002929 -0.09758071 -0.10250497 -0.19650163 0.046722427 -0.04911385 -0.18919726 -0.07572389
-0.06477704 0.003608313 -0.029715808 0.08922722 -0.05764493 0.1373848 -0.11680537 -0.18755989
-0.083188094 0.030663593 0.07670073 0.06359393 -0.020042552 -0.075278915 0.06977993 0.03345239
-0.010353112 0.08292063 0.07718403 0.10408417 -0.15135416 -0.0960732 0.16114882 0.10485786
0.107897624 0.01842643 0.026710311 -0.21909164 0.0032405206 -0.11906894 -0.0014556305 0.09277849
-0.15329538 -0.023945438 -0.008941238 0.07517409 -0.12800962 -0.034742612 0.10037027 0.027696725
00000000: a2aa d83c f031 f13d 6dc6 543d 5bdc 96bc
00000010: 72b2 20be b773 693d efaf 24be 5367 033e
00000020: 7d9c e73d bfaf 963d 8790 8ebd 238d 143e
00000030: 15a3 023e cf31 dfbd ea73 d53d 75f4 2cbe
00000040: 9959 383e 65d8 c7bd 20ee d1bd b937 49be
00000050: 0460 3f3d 9b2b 49bd edbc 41be 2015 9bbd
00000060: d3a9 84bd 7279 6c3b 916e f3bc c3bc b63d
00000070: 171d 6cbd 9aae 0c3e a737 efbd b30f 40be
00000080: 855e aabd 3732 fb3c 4615 9d3d 893d 823d
00000090: 4730 a4bc d52b 9abd c8e8 8e3d 6005 093d
000000a0: 19a0 29bc 4bd2 a93d a912 9e3d 152a d53d
000000b0: 96fc 1abe 07c2 c4bd 3204 253e b8bf d63d
000000c0: 6ef9 dc3d 06f3 963c 95cf da3c 8f59 60be
000000d0: ea5e 543b 6bda f3bd dbca beba a602 be3d
000000e0: 77f9 1cbe 3929 c4bc 457e 12bc e0f4 993d
000000f0: f414 03be 454e 0ebd ee8e cd3d 3ee4 e23c

fc2.weight f4 [64, 64]
-0.029732727 -0.062904626 0.02619206 0.07375468 0.09178238 0.12917022 -0.08899961 0.0131288
0.20032063 -0.018894505 -0.03389516 0.017661229 -0.0071723745 -0.09860001 0.08229691 0.04969993
0.24231745 0.084003285 0.12132536 -0.08302103 0.02876857 0.060097564 -0.03198813 -0.09011876
0.07410698 0.054686617 0.16346793 0.106270604 -0.13185932 -0.10911896 0.04298683 0.043417953
0.07568532 -0.0333688 -0.0034623037 0.13156387 -0.08171646 -0.2040098 -0.13780285 -0.00664665
-0.13884443 0.08367192 0.17301717 0.0090497015 0.112974845 0.13965493 -0.16726266 -0.10052496
-0.05027826 0.17171897 0.22433002 -0.06972289 -0.014523188 -0.08013686 0.0120582 -0.19862007
0.13532083 -0.035992645 0.28879327 0.06865423 0.13400866 -0.4323134 0.09145687 -0.00010292378
-0.05638027 -0.1577185 -0.005120046 0.11157364 0.0051037283 -0.027039278 -0.075849764 -0.38741863
-0.11399291 -0.06560685 0.016396109 -0.082185395 0.05966919 -0.09393224 0.11869819 0.058013845
-0.24312727 -0.044122316 0.08544447 0.08107151 0.13142356 -0.14652729 0.07393692 -0.16107745
-0.2544311 -0.08328843 -0.27073184 -0.061863903 -0.20871852 -0.04850465 0.12291632 -0.10955274
0.06567651 0.08165599 -0.04497934 -0.0045793066 0.008349402 -0.13146107 0.013635001 -0.02954082
0.06324945 -0.17378752 0.21906024 0.043507874 -0.08976113 0.4030464 -0.009580187 -0.039077897
0.05330295 0.265387 0.72198474 -0.022381382 -0.036985427 -0.1520758 -0.052224495 0.013491283
0.14539011 0.16014372 -0.5706916 -0.14362192 -0.09101358 0.06538591 0.104719885 0.1235434
-0.12383862 -0.10092196 -0.044606037 0.073767185 0.030059926 0.052118834 -0.04332454 -0.54807425
0.036398206 -0.09909155 0.07017035 -0.20406653 0.16571477 -0.22961268 0.23994187 0.07009811
-0.2696414 -0.025795842 0.0132179 -0.04813848 0.35944128 0.056543462 -0.08845928 -0.049796052
0.014684952 0.11236149 0.09763263 -0.15639085 0.08541496 0.0066727456 0.059989687 0.11241224
-0.04619545 -0.019452773 0.11226704 -0.14958677 -0.16270792 -0.0019198887 -0.009553413 -0.022213994
-0.06468964 -0.25056654 -0.13137686 -0.004479269 0.010503063 0.45394275 -0.012241131 0.0072868955
-0.0016856976 -0.6319912 0.6898506 -0.002977485 0.014476365 -0.14872806 -0.061928973 -0.0151776215
-0.038013827 0.12853077 0.21977696 -0.19344677 -0.092524536 0.21231411 0.028773861 -0.12053138
-0.057402994 -0.23196034 -0.044793174 0.09966884 -0.1373625 0.07956587 0.20139721 -0.11776777
-0.05525183 -0.012844104 0.054795355 -0.07917478 -0.038306285 -0.013995576 0.18840441 0.16181503
-0.19599912 -0.12639953 -0.028536614 -0.105355166 -0.049529824 0.0951955 0.10113115 -0.057587318
-0.15025064 0.019214284 -0.18371257 -0.0029145768 -0.06406155 0.020453233 0.1572823 0.083863266
0.0019375413 0.0064065554 -0.10053339 -0.10143851 -0.029113723 0.09201584 0.10893793 -0.08310614
-0.34366617 0.06773793 -0.0961372 0.074695006 0.03510973 0.21817125 0.012452596 -0.04760811
-0.10207329 0.29636195 0.3569298 -0.089114934 -0.04481079 -0.0726689 0.0810825 -0.11948315
0.10602532 0.099677995 -0.15936717 -0.032257665 -0.11566433 0.013976422 -0.057340022 0.06368238
00000000: 0c92 f3bc 24d4 80bd bb90 d63c b20c 973d
00000010: 67f8 bb3d 3345 043e 6d45 b6bd 2e1a 573c
00000020: da20 4d3e a6c8 9abc a7d5 0abd 48ae 903c
00000030: 3d06 ebbb cdee c9bd 488b a83d 2792 4b3d
00000040: 1122 783e ea09 ac3d 6e79 f83d ee06 aabd
00000050: 10ac eb3c dd28 763d fc05 03bd 2f90 b8bd
00000060: 66c5 973d 13ff 5f3d 2364 273e 67a4 d93d
00000070: 2106 07be c379 dfbd f512 303d 06d7 313d
00000080: e800 9b3d b9ad 08bd d1e7 62bb aeb8 063e
00000090: f65a a7bd f2e7 50be 311c 0dbe 24cc d9bb
000000a0: 3c2d 0ebe 2f5c ab3d 6a2b 313e 3345 143c
000000b0: 5b5f e73d b401 0f3e e746 2bbe 08e0 cdbd
000000c0: 94f0 4dbd 19d7 2f3e c5b6 653e e0ca 8ebd
000000d0: aaf2 6dbc cb1e a4bd c28f 453c 0f63 4bbe
000000e0: 8b91 0a3e 066d 13bd b6dc 933e 979a 8c3d
000000f0: 9139 093e 2f58 ddbe bd4d bb3d c9d8 d7b8
00000100: ffee 66bd f580 21be 0fc6 a7bb b880 e43d
00000110: 2d3d a73b 7a81 ddbc 1f57 9bbd bc5b c6be
00000120: 1d75 e9bd e25c 86bd 2251 863c d150 a8bd
00000130: ae67 743d 8c5f c0bd 0918 f33d ed9f 6d3d
00000140: 5bf6 78be 9ab9 34bd 83fd ae3d d208 a63d
00000150: e693 063e 400b 16be 3d6c 973d 7df1 24be
00000160: cb44 82be 2093 aabd 5d9d 8abe 0165 7dbd
00000170: 4fba 55be d0ac 46bd 8dbb fb3d 305d e0bd
00000180: 6881 863d 413b a73d 423c 38bd 020e 96bb
00000190: eecb 083c bb9d 06be 5765 5f3c 97ff f1bc
000001a0: ed88 813d 5bf5 31be 5451 603e 5035 323d
000001b0: afd4 b7bd 195c ce3e 37f6 1cbc 2510 20bd
000001c0: 3254 5a3d cee0 873e fed3 383f 2959 b7bc
000001d0: 087e 17bd c2b9 1bbe 5ae9 55bd 8b0a 5d3c
000001e0: 25e1 143e b7fc 233e d818 12bf a011 13be
000001f0: 5465 babd 0ce9 853d 6177 d63d 5204 fd3d
00000200: 1a9f fdbd 2cb0 cebd d2b4 36bd 4013 973d
00000210: 3c40 f63c 8f7a 553d 1375 31bd 984e 0cbf
00000220: 4916 153d 83f0 cabd 79b5 8f3d d1f6 50be
00000230: 22b1 293e 961f 6bbe 52b3 753e 998f 8f3d
00000240: 700e 8abe cd51 d3bc e48f 583c db2c 45bd
00000250: b008 b83e 1e9a 673d 242a b5bd f2f6 4bbd
00000260: 2799 703c c81d e63d 9ef3 c73d ec24 20be
00000270: 0aee ae3d 0ca7 da3b bfb7 753d 6338 e63d
00000280: 7137 3dbd 6c5b 9fbc 43ec e53d 462d 19be
00000290: e89c 26be c6a4 fbba eb85 1cbc 1ffa b5bc
000002a0: 017c 84bd 424a 80be a887 06be d5c6 92bb
000002b0: 0a15 2c3c 2f6b e83e 068f 48bc e9c6 ee3b
000002c0: a0f2 dcba 2dca 21bf 0d9a 303f e921 43bb
000002d0: 472e 6d3c 2b4c 18be 3ca9 7dbd 8fab 78bc
000002e0: 63b4 1bbd 929d 033e 360d 613e e916 46be
000002f0: 817d bdbd df68 593e 29b7 eb3c 28d9 f6bd
00000300: 671f 6bbd 0387 6dbe 0c79 37bd 2d1f cc3d
00000310: c1a8 0cbe 6ef3 a23d 123b 4e3e 3b30 f1bd
00000320: be4f 62bd 1470 52bc 1871 603d 6326 a2bd
00000330: 0de7 1cbd b34d 65bc 16ed 403e d7b2 253e
00000340: feb3 48be e16e 01be 9ec5 e9bc 73c4 d7bd
00000350: c9df 4abd dcf5 c23d d91d cf3d aee0 6bbd
00000360: 4edb 19be 4667 9d3c 261f 3cbe 7c02 3fbb
00000370: b432 83bd 8a8d a73c 9c0e 213e 81c0 ab3d
00000380: 19f5 fd3a 15ee d13b 73e4 cdbd febe cfbd
00000390: e77f eebc cd72 bc3d d91a df3d 8d33 aabd
000003a0: 03f5 afbe 2fba 8a3d 95e3 c4bd b2f9 983d
000003b0: 38cf 0f3d 4968 5f3e f905 4c3c b900 43bd
000003c0: cd0b d1bd c1bc 973e 81bf b63e e481 b6bd
000003d0: 858b 37bd 6fd3 94bd 950e a63d 95b3 f4bd
000003e0: ce23 d93d fa23 cc3d 2631 23be 9d20 04bd
000003f0: 6ce1 ecbd 5dfd 643c 5fdd 6abd e86b 823d

fc2.bias f4 [64]
0.10670439 0.07802111 0.08517874 0.1489639 0.05523377 -0.057414707 0.0077942656 0.04230464
0.056468036 -0.012774276 -0.12180083 -0.06776442 -0.16047728 -0.056808744 0.15650734 0.3473269
0.32288525 0.00028913468 -0.013648043 -0.08130926 -0.13033094 0.01256701 -0.04998714 0.039799742
-0.059783068 -0.061068777 -0.049024858 -0.02260211 -0.05664007 0.2215005 0.19310038 0.1405991
0.056157783 0.093647584 0.013353901 -0.056242533 -0.13552625 0.032531008 -0.06392443 0.124179676
0.18571895 0.020672623 -0.14882985 0.05756252 0.050493326 0.069955096 0.0100887185 0.18052973
-0.044900697 -0.14167406 -0.15091477 -0.08326479 -0.108458824 -0.01395356 0.042396776 -0.04690591
-0.1895436 0.15076853 -0.021527292 -0.09793914 -0.15263768 0.24724509 -0.10419528 0.24275634
00000000: d587 da3d 88c9 9f3d 3172 ae3d fe89 183e
00000010: ce3c 623d af2b 6bbd 0a67 ff3b a147 2d3d
00000020: 074b 673d 324b 51bc b772 f9bd 12c8 8abd
00000030: 2854 24be 49b0 68bd 7643 203e d5d4 b13e
00000040: 3751 a53e 0097 9739 0b9c 5fbc 7885 a6bd
00000050: 7975 05be dce5 4d3c 51bf 4cbd 0e05 233d
00000060: 17df 74bd 4123 7abd 4ace 48bd 0f28 b9bc
00000070: 6bff 67bd 07d1 623e 1bbc 453e 36f9 0f3e
00000080: b405 663d 4eca bf3d 52ca 5a3c 925e 66bd
00000090: 65c7 0abe 3c3f 053d d0ea 82bd ea51 fe3d
000000a0: 1c2d 3e3e a259 a93c da66 18be adc6 6b3d
000000b0: 17d2 4e3d 9e44 8f3d 274b 253c c9dc 383e
000000c0: cbe9 37bd 0113 11be 6789 1abe bb86 aabd
000000d0: a91f debd 799d 64bc 3ea8 2d3d 6920 40bd
000000e0: b817 42be 1163 1a3e 015a b0bc 5194 c8bd
000000f0: 0d4d 1cbe d12d 7d3e 5664 d5bd 1e95 783e

fc3.weight f4 [4, 64]
0.110693805 0.29452324 0.29616567 0.03844337 0.22389364 -0.0002504601 0.027235616 0.00092529115
0.13197383 0.16066909 -0.08507762 0.015143309 0.11543988 -0.090584956 0.07312167 0.19393438
0.18095745 0.24637394 0.24325718 -0.514709 -0.12766723 0.14628696 0.32995287 0.15005077
-0.09786475 0.10868857 -0.08650378 -0.17253162 0.1244977 -0.008106851 0.10690636 0.13301738
0.33480152 0.19388892 0.12662798 -0.22440855 -0.022055445 0.06014394 -0.027242817 0.07976483
-0.26593006 0.23917498 -0.055933796 0.004156008 -0.17928833 0.12451391 -0.29360372 0.27811372
-0.037963722 0.10626998 -0.09457989 -0.57259357 0.06760736 -0.039854154 0.0021930672 -0.04365583
-0.26181772 0.15027535 -0.18610094 -0.42567623 -0.07538825 0.16361684 -0.15171881 0.1302801
0.06232764 0.20998159 0.24293733 0.033243142 0.06568607 -0.088669054 -0.14128003 0.06335998
0.15972827 0.24709998 -0.09162333 -0.029908717 0.17895272 0.044599637 0.027105825 0.08152665
0.10673848 0.3158556 0.1997688 -0.3407082 -0.012653644 0.21352844 0.2106951 0.21309449
0.20478953 0.11537628 -0.053744853 0.11246527 -0.011826534 0.106447674 0.19323294 0.17520319
0.34221742 0.13443558 0.132218 -0.24062562 -0.03930192 0.07828666 0.09776694 0.123650245
-0.06414344 0.28157136 -0.07667882 -0.00023618688 -0.20838994 0.12619705 0.32420918 0.21187581
-0.3171877 0.15040787 -0.07628255 -0.21817496 0.09552738 0.16709766 0.00027123402 0.009502278
-0.27046683 0.21026546 0.13622144 0.114272356 -0.1670404 0.10813545 -0.120883726 0.093528286
0.12937166 0.26669532 0.27188078 0.1533816 0.113091275 -0.201758 0.003658665 0.002949401
0.112161905 0.13591795 -0.27370167 -0.5567989 -0.55141073 -0.4334703 0.1228714 0.14044356
0.18561728 -0.04542118 0.46508208 0.03398104 -0.076824434 0.017467573 -0.03718758 0.14132962
0.019355446 -0.50694036 0.13660312 0.42119217 -0.030127123 0.12159018 0.10919902 -0.048276603
-0.087266125 0.14603017 0.30316406 0.1268154 -0.105782636 -0.21004365 0.12381274 0.1425498
0.09849124 -0.029325677 -0.0591564 -0.05620978 0.34404415 0.15384972 0.089278035 0.18971832
0.3051145 0.17608504 -0.14748473 0.072088435 0.030117018 -0.09472534 0.086018294 0.1438636
-0.6356518 0.25958553 -0.44114769 -0.38611466 0.05854107 0.15530242 -0.336074 0.066354975
0.04227217 0.097583376 0.057542507 0.12138721 0.10186317 -0.08349242 0.054617222 -0.14383377
0.012911121 0.04240689 -0.12608537 0.12650518 -0.066123776 0.049096867 0.15536898 0.1422371
0.12224211 0.54531485 0.08044246 -0.38408178 -0.100967266 0.16325702 0.3324934 0.04808303
0.07402221 -0.2629162 -0.16237903 -0.23305222 0.43531236 0.15728915 0.14135784 0.11760032
-0.008328417 0.17196356 0.17628178 -0.18815479 0.005257873 0.08097079 0.041704 0.02631965
0.124676116 0.0077834604 -0.0690686 0.09185074 -0.20227273 0.29702842 -0.06629067 0.271405
-0.16096288 0.43976927 -0.07639151 0.081281245 0.02661656 -0.0016979343 0.15836139 0.15804736
-0.21856622 0.027532382 -0.018879898 -0.30997372 -0.26687163 0.18355007 -0.059619732 0.13851011
00000000: 6fb3 e23d c0cb 963e 07a3 973e cc76 1d3d
00000010: 6044 653e 3050 83b9 3a1d df3c 3d8f 723a
00000020: 2624 073e 7086 243e 2d3d aebd a41b 783c
00000030: be6b ec3d 9b84 b9bd d0c0 953d bc96 463e
00000040: e94c 393e 7349 7c3e 6918 793e f8c3 03bf
00000050: 33bb 02be 40cc 153e 95ef a83e e9a6 193e
00000060: 506d c8bd 1d98 de3d e528 b1bd 21ac 30be
00000070: a6f8 fe3d 99d2 04bc b9f1 da3d b535 083e
00000080: 1b6b ab3e d18a 463e c4aa 013e 5bcb 65be
00000090: 9fad b4bc 7e59 763d 542c dfbc be5b a33d
000000a0: fc27 88be 49ea 743e d61a 65bd 1f2f 883b
000000b0: 5c97 37be 2601 ff3d 3a53 96be ec64 8e3e
000000c0: d97f 1bbd 13a4 d93d 1ab3 c1bd 7e95 12bf
000000d0: ba75 8a3d 1c3e 23bd 90b9 0f3b 75d0 32bd
000000e0: f90c 86be c8e1 193e 3f91 3ebe 3cf2 d9be
000000f0: 2865 9abd 2c8b 273e 2d5c 1bbe 2668 053e
00000100: 444b 7f3d 6a05 573e 90c4 783e f629 083d
00000110: 6b86 863d 1f98 b5bd b6ab 10be e1c2 813d
00000120: cf8f 233e c707 7d3e 03a5 bbbd 2003 f5bc
00000130: 623f 373e 1cae 363d 090d de3c 72f7 a63d
00000140: b499 da3d d3b7 a13e 3190 4c3e 4e71 aebe
00000150: 3b51 4fbc 33a7 5a3e 75c0 573e 7135 5a3e
00000160: 59b4 513e 664a ec3d 9023 5cbd 3154 e63d
00000170: 14c4 41bc 3d01 da3d dbde 453e 7768 333e
00000180: 1f37 af3e 7ba9 093e 2864 073e 9066 76be
00000190: 0dfb 20bd c254 a03d 093a c83d 573c fd3d
000001a0: a35d 83bd 1f2a 903e c909 9dbd efa8 77b9
000001b0: 2c64 55be cd39 013e bffe a53e f9f5 583e
000001c0: 6d66 a2be 8504 1a3e 073a 9cbd 4269 5fbe
000001d0: dca3 c33d a61b 2b3e 6a34 8e39 71af 1b3c
000001e0: a17a 8abe d44f 573e a27d 0b3e a007 ea3d
000001f0: a30c 2bbe 1e76 dd3d e391 f7bd c28b bf3d
00000200: 017a 043e 4a8c 883e f533 8b3e 1110 1d3e
00000210: 669c e73d a699 4ebe 37c6 6f3b bd4a 413b
00000220: 24b5 e53d 132e 0b3e a022 8cbe 5f8a 0ebf
00000230: 4129 0dbf d2ef ddbe 00a4 fb3d 70d0 0f3e
00000240: 7512 3e3e 8f0b 3abd 3d1f ee3e b42f 0b3d
00000250: 2156 9dbd 2818 8f3c 0152 18bd b6b8 103e
00000260: 508f 9e3c d8c6 01bf b0e1 0b3e 80a6 d73e
00000270: 28cd f6bc 4604 f93d bca3 df3d b0bd 45bd
00000280: 95b8 b2bd ef88 153e 5238 9b3e e5db 013e
00000290: 91a4 d8bd af15 57be 8991 fd3d 93f8 113e
000002a0: c6b5 c93d 673c f0bc fb4d 72bd 3a3c 66bd
000002b0: 8e26 b03e c88a 1d3e 67d7 b63d 8545 423e
000002c0: f837 9c3e a34f 343e 3d06 17be 1aa3 933d
000002d0: f7b7 f63c 5cff c1bd 5c2a b03d fb50 133e
000002e0: 14ba 22bf 65e8 843e 1cde e1be d2b0 c5be
000002f0: c3c8 6f3d 9907 1f3e e411 acbe 1ee5 873d
00000300: 9525 2d3d cbd9 c73d b1b1 6b3d dc99 f83d
00000310: a39d d03d 13fe aabd 4fb6 5f3d 2949 13be
00000320: 2b89 533c d9b2 2d3d 861c 01be 938a 013e
00000330: e76b 87bd cc19 493d 0c19 1f3e 9aa6 113e
00000340: 125a fa3d c199 0b3f 04bf a43d 5ea6 c4be
00000350: edc7 cebd d92c 273e 933c aa3e b6f2 443d
00000360: f598 973d f49c 86be b046 26be 3ea5 6ebe
00000370: 43e1 de3e 6810 213e 1cc0 103e 70d8 f03d
00000380: ea73 08bc 3717 303e 3683 343e a6ab 40be
00000390: 3c4a ac3b 03d4 a53d d0d1 2a3d 4e9c d73c
000003a0: 3156 ff3d 660c ff3b d773 8dbd 3e1c bc3d
000003b0: 9520 4fbe 1c14 983e 67c3 87bd 99f5 8a3e
000003c0: 74d3 24be 7029 e13e 2773 9cbd c876 a63d
000003d0: f90a da3c 398d deba 7d29 223e 2bd7 213e
000003e0: d3cf 5fbe 978b e13c 04aa 9abc e0b4 9ebe
000003f0: 66a3 88be 8df4 3b3e d233 74bd 98d5 0d3e

fc3.bias f4 [4]
0.20026569 0.19853124 0.1263463 0.115035325
00000000: 7312 4d3e c64b 4b3e ed60 013e a497 eb3d
