Project1-Navigation/dqn.pth (torch_old, 28391 bytes, 6 tensors)

fc1.weight f4 [64, 37]
000000 c0 e1 11 bd 1d 6f ac bd e1 ef 93 bd d9 8f 27 be
       -0.035615683 -0.08419631 -0.07223488 -0.16363467
000010 d9 6a be bd 21 92 4f bd 82 16 d5 be 8c dd aa 3e
       -0.09297723 -0.05067647 -0.41618735 0.33372152
000020 3c ca 6f be bd 98 cc bf e3 cf 38 bd af a5 13 3d
       -0.2341699 -1.5984112 -0.04512013 0.03604668
000030 49 19 d6 bd f0 ed 36 3d 78 f8 92 3d 5a c0 97 3d
       -0.104540415 0.04466051 0.07176298 0.07409735
000040 a0 df 81 bc 07 68 6b 3d 8b 80 cd be 3a 06 a7 be
       -0.015853703 0.057472255 -0.40137133 -0.32621938
000050 f1 a9 20 bd 09 c5 9b bc 95 77 49 3e 25 3d 00 be
       -0.03922457 -0.019014852 0.19674523 -0.12523325
000060 6f cf 89 be 2e 21 a2 3c a1 64 ea bd ed d3 06 3e
       -0.26916072 0.019791212 -0.11444975 0.13166781
000070 3c 0c 5b be c7 17 88 bf 7e 43 3c 3e 24 ae d9 be
       -0.21391386 -1.0632256 0.18385121 -0.4251567
000080 d8 6b d7 bd f9 92 e5 be 7f 99 8b be bd 65 89 bd
       -0.105186164 -0.44838694 -0.27265546 -0.06708858
000090 40 b9 08 3d d6 0f a4 3d e6 20 8c 3d e5 bf 4f 3d
       0.033379793 0.08010833 0.068422124 0.050720114
0000a0 1d 06 8f 3c 9d 60 07 3c ba ad 08 3e 55 3a ba be
       0.01745897 0.0082627805 0.13347521 -0.3637263
0000b0 07 fc 9f bd 32 f6 8f be 3f 6d 8c bf e6 ef ad bb
       -0.07811742 -0.2811752 -1.0970839 -0.005308139
0000c0 21 73 fd 3c 90 a9 2e bd c6 ab a5 bd aa 97 41 be
       0.030938687 -0.042642176 -0.08089404 -0.18905511
0000d0 bd 78 4c 3d 97 73 26 3a c9 f4 fa 3d 1e d1 e3 bd
       0.049919832 0.00063496217 0.1225372 -0.1112387
0000e0 99 3d 8a be 4a 8b 65 3d f0 06 28 bd e1 99 27 bb
       -0.2700012 0.05604104 -0.04102224 -0.0025573897
0000f0 27 c1 3b 3e db f5 7e 3e b0 ce ea 3d 35 d4 46 bd
       0.183354 0.24898474 0.11465204 -0.04854222
000100 7d 51 50 3d 24 b6 28 3e 60 24 f0 3e f4 e0 2b bd
       0.050858963 0.16475731 0.46902752 -0.04196258
000110 d0 90 7a bd 8e 18 2b 3b ea a1 15 3d 22 67 03 3e
       -0.06117326 0.0026107165 0.036531366 0.12832311
000120 b7 79 9d bc 81 85 f2 ba e5 88 35 3d ca 17 06 3d
       -0.019223077 -0.0018502922 0.044320006 0.03273753
000130 5a b7 e7 3c 37 3d b3 3c 18 04 47 bc 36 9b 3a bc
       0.028285671 0.021879775 -0.012146972 -0.011389544
000140 60 87 80 3d cb ed 0c be 28 d8 21 be 3b dd 4c be
       0.06275821 -0.13762586 -0.15805113 -0.20006268
000150 3e 96 34 bc 15 32 b7 bd 7a 90 fc 3d 40 a9 7e 3e
       -0.011022149 -0.08945099 0.12332244 0.24869251
000160 21 52 55 3e 43 89 f0 bd 5b 0d 45 be fc c9 dd 3d
       0.20832111 -0.117449306 -0.19243376 0.10829541
000170 0f 60 ab 3d a1 05 11 3e 1f 61 39 be d2 fd 02 be
       0.08367931 0.14162304 -0.18103455 -0.12792137
000180 ac 83 27 3e 62 b3 ac 3e d5 b0 fe 3e 90 23 7a 3d
       0.16358823 0.33730608 0.49744287 0.06106907
000190 f6 fb 24 3e 15 fb 27 be 05 23 5d 3d b4 59 60 bd
       0.1611174 -0.16404374 0.053988475 -0.054773048
0001a0 67 04 de bd 98 3f 40 bd 9c ab da bc f5 f9 f7 3c
       -0.108406834 -0.046935648 -0.026693158 0.030270556
0001b0 a9 62 79 3e 0f dd e4 bc 16 4d ae bc 06 26 1c 3c
       0.24354042 -0.02793744 -0.021276992 0.00953055
0001c0 5b 03 26 be c1 d5 53 bd 03 fb d5 3d 0f 45 47 3d
       -0.16212218 -0.051717523 0.10448267 0.048649844
0001d0 bd 24 d0 3d 8e 68 50 3d 71 51 14 3d 14 87 ff bd
       0.10163257 0.05088096 0.03621048 -0.12476936
0001e0 52 fe 2f be 28 b1 3d be 53 53 91 bd 0f 6c 65 bd
       -0.17186859 -0.18524611 -0.07095971 -0.056011256
0001f0 42 8b 6b 3d e4 03 9c be ae d5 4e 3e 50 f4 56 3e
       0.057505853 -0.30471718 0.201987 0.20991635
000200 22 80 5b be 44 53 45 be 31 8a ab bd 72 c7 0f bc
       -0.21435598 -0.19270045 -0.08375967 -0.008775579
000210 97 f7 1a be 43 96 b1 3d 07 55 92 3e df f7 be 3e
       -0.1513351 0.08671238 0.28580496 0.37298486
000220 a5 eb 87 bc 69 c6 20 be 75 0c 8e 3c ef 4a c1 3c
       -0.016591856 -0.15700687 0.017339924 0.023595301
000230 e3 f9 80 3e df 83 ea 3b 37 15 87 be eb 19 d5 3d
       0.25190648 0.0071568335 -0.26383373 0.10405334
000240 25 38 5d bd 55 ef a2 be f4 ad c7 bc 24 bd 58 bc
       -0.05400862 -0.3182322 -0.02437494 -0.013228688
000250 c8 b7 94 bd 5f ae a2 bc fb f5 fa bb 7a c6 ca bd
       -0.07261616 -0.019858537 -0.0076587177 -0.09901138
000260 4e 1e e6 bc f7 d6 96 3c 12 10 d4 3d 0d 53 2d 3e
       -0.028090622 0.01841305 0.10354628 0.16926213
000270 d4 36 5a 3e 40 67 b2 3d a9 2d 96 3e 53 de 88 be
       0.21309978 0.087110996 0.2933171 -0.2673212
000280 71 7b 5c bd ca 5f 60 be 1c 9b ae bf 59 04 a1 3d
       -0.05382866 -0.2191154 -1.3641086 0.078621574
000290 8f f8 5d 3d 6c e0 09 3e a3 ca 09 3c e9 72 f5 ba
       0.054192122 0.13464516 0.008410129 -0.0018726262
0002a0 f5 b1 74 3d 0a c2 6f 3e c1 08 9f bd 29 93 f6 bb
       0.059740026 0.23413864 -0.077653416 -0.007524867
0002b0 71 e7 e7 bd 5a 80 05 be e2 b1 2e 3e aa b5 9e 3d
       -0.11323441 -0.13037243 0.17060044 0.077494934
0002c0 bd b9 27 3e 2e d3 0a be a1 72 8c ba fc e3 92 3d
       0.16379447 -0.13557121 -0.0010715314 0.07172391
0002d0 be 4b e8 3b 31 f3 a9 bb c8 cd b8 3d ee 8a a1 bd
       0.0070891073 -0.0051864614 0.09023625 -0.07887827
0002e0 49 8e 72 b8 f9 36 85 bc d6 f9 35 be 6f 54 c9 bd
       -5.782981e-05 -0.016261565 -0.17771086 -0.098305576
0002f0 f1 5f 76 3d b9 35 9e be 9f 1b 17 bc 2f a4 8a be
       0.06015009 -0.30900362 -0.009222894 -0.27078387
000300 58 a9 30 be 8c ff ba be 98 41 ab 3d 48 ef e4 be
       -0.172521 -0.36523092 0.083621204 -0.44713807
000310 a9 34 65 be 45 83 34 3e 0d ca 5b bd 00 7e 9c be
       -0.2238337 0.176282 -0.053659488 -0.3056488
000320 a3 b1 87 be 9d a0 8f bd 27 d5 59 be 31 6f 36 3e
       -0.26502714 -0.070130564 -0.21272717 0.17815854
000330 e9 1b cb bc d7 11 4d be 13 76 a5 be bf e8 08 3e
       -0.024793582 -0.20026337 -0.32316646 0.13370036
000340 29 fd 83 be f3 de 82 be 49 e6 83 3d 20 e9 0f bd
       -0.25779083 -0.25560722 0.06440408 -0.035134435
000350 5e 96 93 be a3 54 8b 3d 04 df 0f be 95 cb 7b bd
       -0.2882566 0.068032525 -0.14049917 -0.061473448
000360 03 8f 8c 3e 7e f9 8a ba 94 20 66 be db 76 eb bd
       0.2745286 -0.0010602919 -0.22473365 -0.11497279
000370 bf 8f 6e bd d4 53 a5 bd e8 24 45 be d8 63 df bd
       -0.058242556 -0.080726296 -0.1925236 -0.109077156
000380 8a 52 2e bd ae eb 28 be 32 15 90 bd fb 3d 9a be
       -0.042559184 -0.16496155 -0.07035293 -0.30125412
000390 ad 29 90 3e 23 2c 26 3d 15 4e 9f be c5 07 7c be
       0.28156796 0.040569436 -0.3111426 -0.24612339
0003a0 82 62 b5 bd 00 d0 84 be 8d e0 a9 bc 9e 9f 1e 3e
       -0.088566795 -0.2593994 -0.020736957 0.15490577
0003b0 5a a8 c8 bd 9b 82 0c 3d 7d a4 bc be 38 42 0a 3e
       -0.097977355 0.034304243 -0.36844245 0.13501823
0003c0 cf 47 a1 be a1 1a 53 be 56 ff 30 3e ae c5 af be
       -0.31500098 -0.20615627 0.17284903 -0.34330505
0003d0 60 f8 d2 be 25 f7 33 3c 8c 6c 8c bd 09 72 dd 3b
       -0.4120512 0.010984217 -0.06856641 0.006757979
0003e0 8a 3b ee bc cc 3c 36 3e 9e cd da 3d b7 15 15 3e
       -0.029081125 0.1779663 0.106837496 0.14559065
0003f0 a9 e7 70 bd 7f 51 e0 bd 9b 3e b1 be 19 3f 42 bf
       -0.05881468 -0.10953044 -0.34618077 -0.7587753

fc1.bias f4 [64]
000000 45 17 89 3d e6 c8 92 3d ea b5 c7 3c ac 05 94 3b
       0.066938914 0.071672246 0.024378736 0.0045172777
000010 64 5a d8 bd 99 5b d1 3c f5 57 78 be dc b6 21 3d
       -0.10564116 0.025556372 -0.24252303 0.03948103
000020 ef 52 2c 3d 75 00 fc 3c 7c 4e 86 bd 47 04 00 3e
       0.04207128 0.030761937 -0.065579385 0.12501632
000030 7e bd 44 3e 38 4f e6 bd 57 8f 9b 3d 46 96 bd bd
       0.1921291 -0.112455785 0.07595699 -0.09257178
000040 8c a6 0a 3d 84 3b 16 be 4e 2e 45 3c 56 67 51 be
       0.033850238 -0.14671141 0.012034966 -0.20449576
000050 4b 21 86 3d 45 b8 1e be 75 25 16 be c7 f2 d1 3c
       0.06549319 -0.15499981 -0.14662726 0.02562846
000060 61 52 a3 bd 8c 01 c2 3c eb 50 00 3d 96 1a 59 3e
       -0.07974697 0.023682378 0.03132717 0.21201548
000070 5a 80 8c bd b1 6e 03 3e 4b d8 4a be 74 47 e9 bd
       -0.068604186 0.12835194 -0.19809072 -0.11390582
000080 fc cb 2b be f8 f8 a5 bd 4c ee 42 3e 07 52 03 3e
       -0.16777033 -0.08104128 0.19036216 0.1282426
000090 a7 79 f3 3b e9 f9 36 3c 50 b8 20 3e 77 c4 c2 3a
       0.0074302736 0.011167982 0.1569531 0.0014859576
0000a0 85 25 53 3d 2c 3a ad 3d 8b a8 8c 3d 93 f1 03 3e
       0.051549453 0.08458361 0.068680845 0.12885122
0000b0 c2 cc 4e be a7 59 11 be 1d 41 06 3e b5 97 30 3d
       -0.20195296 -0.14194356 0.13110776 0.04311343
0000c0 f1 e4 f8 3d 06 43 42 3e ad 2d 26 bd ea bf 5f be
       0.12153042 0.1897088 -0.040570904 -0.21850553
0000d0 26 18 a1 bd 16 23 48 be 60 ab 0d 3e f1 60 3d 3d
       -0.07865934 -0.19544634 0.13834906 0.04623503
0000e0 ac da a2 bd 34 c5 95 bd c4 4b e1 bb 7d 8e 2f 3e
       -0.079518646 -0.07313004 -0.006875487 0.17144199
0000f0 ee ce ec bd 6f b2 90 bd 64 23 17 3e 15 71 cd 3c
       -0.11562906 -0.070652835 0.14759594 0.025078336

fc2.weight f4 [64, 64]
000000 a0 b8 22 3d 5a 1c a0 3c 47 8e 1a bc 76 f9 b9 bd
       0.039726853 0.01954477 -0.009433336 -0.09080784
000010 c4 7e d2 3d c8 53 5f 3d 4f d7 8d be 21 1b c9 3a
       0.10278085 0.05452326 -0.2770333 0.0015343168
000020 5c d5 8f bc 8d b3 b9 bc 67 18 14 3d 9d 7c 60 bd
       -0.017557792 -0.022668624 0.036156084 -0.05480634
000030 6d 5b 21 be 43 bc c7 ba 32 b8 44 3d 93 5b 74 3c
       -0.15757532 -0.0015238601 0.048027225 0.014914411
000040 f3 9c 0c be 2a b2 0c bd 91 e3 10 3e f1 b0 12 bd
       -0.13731746 -0.034349598 0.1414931 -0.035813276
000050 58 fc 87 3d aa 17 41 3d 56 c3 2d be b8 dd c1 bc
       0.066399276 0.04714171 -0.16969046 -0.023665294
000060 fc b9 23 3e 40 d8 66 3e 36 b0 a1 3e 62 4d e5 3d
       0.15988916 0.2254343 0.3157975 0.111964
000070 25 0e bd bd b0 c3 b2 bd 89 f7 6a 3d cb 9e 48 bb
       -0.092312135 -0.08728731 0.057364974 -0.0030612226
000080 20 a5 cb 3c fe 48 55 bd 2c bc 4f 3d 99 47 f5 3d
       0.024859011 -0.052071564 0.050716564 0.11976547
000090 fa ac 83 be 06 49 1b 3d 3b 2d d6 be 7c 10 87 bb
       -0.25717908 0.037911437 -0.41831383 -0.004121838
0000a0 fc af 92 bc d3 d3 c3 3a ed 8a 3b 3e 23 81 0b 3e
       -0.017906182 0.0014940448 0.18314715 0.1362348
0000b0 23 28 2e 3e e8 33 fb bd 59 a6 c7 bd 13 1b f6 bc
       0.17007498 -0.1226576 -0.09748525 -0.030042207
0000c0 b1 ad 0f be ea 33 77 3e ce 5c ea ba 45 ce 88 bd
       -0.14031102 0.24140897 -0.0017880441 -0.06679968
0000d0 fa d6 f5 bd c9 33 23 be 64 ae 60 bd 63 b2 d6 3d
       -0.12003894 -0.15937723 -0.05485381 0.10483243
0000e0 74 92 3d 3c 04 77 cb 3a f4 0b 24 3e c2 0f 08 3e
       0.011570562 0.001552314 0.16020185 0.13287261
0000f0 f9 f8 9b 3d a4 51 94 be 31 1e 9f be b2 20 6a 3d
       0.07615847 -0.28968537 -0.31077722 0.057160087
000100 37 1b ca bd f0 80 97 be 02 56 e4 bd 7d 5b 2c 3e
       -0.09868472 -0.2959056 -0.11149217 0.16831775
000110 0f 3d 93 be 52 72 78 3e 40 56 30 be 26 f7 76 bd
       -0.28757522 0.2426236 -0.17220402 -0.060294293
000120 76 0f fb 3d 8b fe 5d 3d 6e 4d 97 bd 5d 30 85 bd
       0.12258808 0.05419783 -0.073878154 -0.06503365
000130 24 8d c6 bd d4 0a 79 bd 36 98 20 bd a1 51 ef bc
       -0.09694889 -0.060801342 -0.03920766 -0.029213728
000140 b0 92 f2 bd 3a c2 95 3b 6f 84 e3 bd 0f a5 f0 bd
       -0.11844385 0.0045702728 -0.11109244 -0.117502324
000150 c4 8e 43 3d 71 a6 42 bd c2 4a c2 3c a3 ce 6e be
       0.047743574 -0.047522012 0.023717288 -0.23321013
000160 be d5 12 3e 97 d8 d2 be a6 1f 21 3f 09 36 87 be
       0.14339349 -0.4118087 0.62938917 -0.26408413
000170 fb 2d 47 bd 32 45 d3 bd dc f2 a5 3b 21 d9 9d bc
       -0.048627835 -0.10315932 0.0050643515 -0.019268574
000180 f0 7f 2f be 27 92 b6 bd 4f 44 39 3d 92 a1 ab 3c
       -0.17138648 -0.08914595 0.04523116 0.020951066
000190 7a b7 63 be f6 57 16 be 78 b6 09 bd b2 b5 8a 3e
       -0.2223796 -0.14681992 -0.03362128 0.27091748
0001a0 dd ea 8e be cb 54 fb be 4c 7a 89 bd f4 7e ac bd
       -0.2791356 -0.4908813 -0.067127794 -0.08422652
0001b0 90 95 40 3d 08 c3 46 bb 67 2e f2 3c bd dd 4d 3c
       0.047017634 -0.003032865 0.029563142 0.012565074
0001c0 29 46 41 bd df 34 2c bd c9 19 28 be 4c 0f 88 3e
       -0.04718605 -0.04204261 -0.16416086 0.2657417
0001d0 c8 f7 9e 3d 5c b6 08 be e6 3a 5b bc 41 f5 3c 3d
       0.07762104 -0.13350815 -0.013380742 0.04613233
0001e0 20 71 d1 bd 67 10 fc bc 41 7c 0b be 3c 09 f2 bc
       -0.10226655 -0.03076954 -0.13621618 -0.029545419
0001f0 22 93 88 ba 1d 7c 50 3c 3a cb d9 bd 92 1f 23 3d
       -0.0010419826 0.012724903 -0.106344655 0.03982503
000200 08 3e 2b be a6 d7 73 be e6 dd 8f bc 0a 4b 73 bc
       -0.16722882 -0.23812732 -0.017561864 -0.014849434
000210 67 54 44 3e e4 a0 22 be bd 4d 68 be 33 14 c7 bc
       0.19172822 -0.15881687 -0.22685905 -0.024301624
000220 ee 49 ee 3b e3 10 bb bd f8 96 5a 3d fa 42 4c bd
       0.0072719967 -0.0913408 0.05336663 -0.04986856
000230 c6 ba 0f 3e 35 53 29 be eb 48 8c 3c bf 0f a1 3c
       0.14036092 -0.16535647 0.017124614 0.019660829
000240 58 36 2a be 0a 65 a5 3c b5 5a 0e bd 8b 0e 67 be
       -0.16622293 0.02018978 -0.034754474 -0.22564141
000250 26 cf e8 3c cf ee 41 3d 45 8e 20 3d 80 cd f1 bd
       0.028419089 0.047346886 0.03919818 -0.11806774
000260 9f 3b 37 be a3 4e 6a 3e b6 fd 13 3f 2e 1a a8 be
       -0.17893837 0.2288156 0.5780901 -0.32832474
000270 56 6d 05 3e b0 8d b3 bd 85 12 1a 3d 9c dc ac bd
       0.1302999 -0.08767259 0.037615318 -0.084405154
000280 93 5c 38 bc dd 32 88 3d 49 9d c5 3d 53 82 d6 bd
       -0.01125254 0.066503264 0.096491404 -0.10474076
000290 17 ee 31 3e d9 b4 cc bd 8d 0a 60 be 03 27 03 be
       0.1737598 -0.099954315 -0.21879025 -0.1280785
0002a0 55 7e a2 3d e0 06 f1 bd 9b 4c 71 bd 90 5b 9a 3d
       0.07934252 -0.117688894 -0.058910947 0.075369954
0002b0 85 97 f6 bd 34 24 09 bd 0e dc c7 3b db 70 5b bd
       -0.12040619 -0.03348179 0.0060992306 -0.053574424
0002c0 50 1c 9e bd f7 8b 8e be 4a a6 c9 3d 22 b8 c9 3c
       -0.07720244 -0.2784116 0.0984617 0.024623934
0002d0 ab 93 3d 3d 0c 42 81 bc 1e 09 12 be 60 12 63 3d
       0.046283405 -0.015778564 -0.1426129 0.055437446
0002e0 a5 14 53 3e 77 97 0d bd 4c 88 02 3e c3 32 ad 3b
       0.20613344 -0.034568276 0.12747306 0.0052855923
0002f0 2f 40 b7 bd e2 9a 80 3d b6 91 74 bd 95 f8 8a bd
       -0.08947789 0.062795416 -0.059709273 -0.067856945
000300 ac 9b b2 bd 48 c8 66 3c 91 4c 9f bc 77 27 04 3e
       -0.08721098 0.014085837 -0.01944569 0.1290568
000310 2b 55 18 3e ed c3 6c be f0 f2 21 3e f4 e9 e2 3d
       0.14876239 -0.23121615 0.1581533 0.11079779
000320 76 4c 4a bc 76 e9 ff bd 74 d1 5f 3d 0f f3 a8 bd
       -0.012347331 -0.12495701 0.05464311 -0.08249485
000330 f3 cd 36 bd df 0e ad be 28 7a 75 3d 11 6c 5b be
       -0.044630002 -0.33800408 0.05993095 -0.21427943
000340 1f 15 fc 3a 2c a6 f3 bd 12 97 2a bd 62 c3 20 be
       0.0019232369 -0.11896929 -0.041647978 -0.15699533
000350 8b 5d 76 bd 72 10 5c 3b db ba 9e 3d 58 b0 a6 be
       -0.060147803 0.0033579138 0.077504836 -0.32556415
000360 4b d9 34 3e 63 f1 65 3e 6a 69 51 3e de e8 92 3d
       0.17661016 0.22455363 0.20450369 0.07173322
000370 92 ce a0 be 01 f3 d0 3a 78 1f 4f 3e fc 88 35 be
       -0.314076 0.0015941561 0.20226848 -0.17728037
000380 4e 54 29 3e d3 e6 c0 bd be ce 5e 3b 19 5e b5 bc
       0.16536066 -0.09419026 0.003399774 -0.022139596
000390 8b 28 65 be b3 2c 1f 3e 71 3e 3e bd f8 d5 51 3e
       -0.22378747 0.15544395 -0.046446268 0.20491779
0003a0 d4 82 78 3d 1a 98 84 3e bf 96 03 be 27 94 f3 39
       0.060671642 0.25897294 -0.12850474 0.00046458954
0003b0 a5 ea 8c 3e 09 45 a0 bb 5b 0b 50 bd 5a bf 5e bc
       0.2752277 -0.004891042 -0.05079208 -0.013595426
0003c0 b1 b0 7d bc 15 3b 2f be 70 a1 35 3d c7 43 44 3e
       -0.015484021 -0.17112382 0.044343412 0.1916648
0003d0 95 0f 87 bc 09 62 58 3e 61 17 40 3d 90 fb d7 bd
       -0.016486922 0.21131147 0.046897296 -0.105460286
0003e0 24 a1 ea 3d 8b 0b af 3d 3f 43 b5 3c 90 66 e2 bd
       0.114565164 0.085471235 0.022126792 -0.110547185
0003f0 51 44 7f bd a2 cb 0f bd ec d8 04 bf 73 ca c5 3d
       -0.06232101 -0.03510631 -0.51893497 0.09657755

fc2.bias f4 [64]
000000 d6 c6 b1 3d 73 71 ff 3c 18 00 95 3e c2 4b aa 3d
       0.08680503 0.031182026 0.29101634 0.08315231
000010 2e 40 a4 3d fb 49 f6 bc e2 74 da bc 3f 02 22 3d
       0.08020054 -0.030064574 -0.026667062 0.039552923
000020 aa 4b 66 bd dd a4 80 bc 6f 38 ea bc 0f 2a 2d bd
       -0.056224503 -0.015703613 -0.028591363 -0.04227644
000030 7a d1 37 bd eb 86 3b bc 84 0a e3 3e 91 77 d8 3e
       -0.044877507 -0.011445741 0.4434396 0.42278722
000040 2c d7 29 3e f7 49 5e 3d 95 49 05 bd d8 fc d7 bc
       0.16585988 0.054269757 -0.032540876 -0.026365682
000050 ef a8 c9 bd ad f6 6b 3d a5 b6 c6 bd 54 de 14 bd
       -0.09846675 0.057608295 -0.097028054 -0.03634484
000060 0d 6d 78 3e 56 de ca bd a3 cf a9 bd f0 88 92 bd
       0.2426035 -0.099056885 -0.08291557 -0.07155025
000070 b5 a6 71 3d 7e 74 0b 3e 8f 11 cc 3e 59 45 10 3e
       0.058996875 0.13618657 0.39857146 0.14088954
000080 44 4e 71 3d 80 5f 45 3e ed 0c 9a 3e 44 37 00 bd
       0.05891253 0.19274712 0.30087987 -0.031302705
000090 ea 39 2a be df c9 f1 3b b4 fe 3e 3a 64 09 bd 3e
       -0.16623655 0.0073788012 0.00072858785 0.36921227
0000a0 21 cd bb 3d db 32 fb bb 85 e7 21 bd a9 47 5c 3d
       0.091699846 -0.0076659746 -0.039527435 0.053779278
0000b0 ba 13 d0 3c 05 74 14 3e c9 bf c4 3b d8 52 07 3e
       0.025400031 0.14497383 0.006004308 0.13215196
0000c0 8b b1 a3 3c 29 b3 af bd 34 50 45 be ae b1 24 be
       0.01998212 -0.08579094 -0.19268876 -0.16083404
0000d0 ab e7 d2 bc 0b b7 e0 3d b9 29 49 3e 24 e6 02 be
       -0.025745234 0.10972413 0.19644822 -0.12783104
0000e0 15 d8 a9 bd 96 4b 26 3e 49 00 49 bc ed de 98 3d
       -0.082931675 0.16239771 -0.012268134 0.07464395
0000f0 62 55 9f bd bf e8 c9 3e 8f 75 ce bd 9a 3d dd 3e
       -0.07779957 0.39435384 -0.10081016 0.4321106

fc3.weight f4 [4, 64]
000000 86 77 0a 3e f5 86 c4 3e 4f 3a 87 3e 0a fd 08 bd
       0.13522157 0.38384214 0.26411673 -0.03344444
000010 30 34 19 3e 80 45 f4 3d 62 01 a1 bc 81 6b 81 be
       0.14961314 0.119273186 -0.01965398 -0.2527733
000020 55 be 69 be 53 9e 0a 3e 37 97 16 3d 5b 1a 06 3e
       -0.22826512 0.13536958 0.036765303 0.13095991
000030 b0 9d f9 3d 86 2d 2a 3e 8c 21 0d 3e f5 b7 69 3e
       0.1218828 0.16618928 0.13782328 0.2282408
000040 39 9a 27 3e 1c 44 9f 3e 34 a1 1a 3f e1 56 b2 3e
       0.16367425 0.3110665 0.60402226 0.34831908
000050 7c e3 a2 be 85 d7 25 3e 16 a9 c8 3e 58 fd af bc
       -0.31814182 0.16195495 0.39191502 -0.021483108
000060 70 5e 95 3d 9c 93 c6 bd 01 a8 a1 bd cc 82 a7 be
       0.07293403 -0.09696123 -0.07893372 -0.32716978
000070 ac 45 69 3e 9c 62 79 3d 61 77 28 3e e0 81 16 3f
       0.22780484 0.060885057 0.1645179 0.58791924
000080 f1 75 9f 3e b9 38 1e 3e 1f a9 45 3e 16 15 41 be
       0.3114467 0.15451325 0.19302796 -0.188557
000090 35 f9 73 3e c4 e0 2b 3e f5 b6 43 3e d3 a3 e7 3d
       0.23825534 0.1678496 0.19112761 0.11310544
0000a0 42 e3 98 bb 54 7f 1b be e1 06 09 bd 74 89 c7 3e
       -0.004665763 -0.1518529 -0.033453826 0.38972056
0000b0 35 19 1c bf 65 5d a8 3d 64 ec 5d 3e 3f 2d 94 3e
       -0.6097596 0.082209386 0.21672207 0.2894077
0000c0 b9 37 f4 3e 89 f9 85 3e 7e ff 82 be 2c dc 87 be
       0.47698763 0.26166943 -0.2558555 -0.26535165
0000d0 84 b8 92 bc e7 6c 06 3e 63 b2 ed 3d fb eb e3 bd
       -0.01791025 0.1312748 0.1160629 -0.11128994
0000e0 8a db 38 3d 18 d6 be 3e 4a f4 d9 3e e3 b4 88 bc
       0.045131244 0.37272716 0.4256919 -0.016687816
0000f0 d8 f2 44 3d 5f fa 4b 3e 81 16 b2 bd 52 4f 42 3e
       0.048083156 0.19919728 -0.086956985 0.18975571
000100 a7 53 b7 3d 2a 93 dc 3e dc b9 13 3e a3 37 89 3d
       0.08951502 0.43081027 0.14426368 0.06700065
000110 10 29 dc 3c e4 2a 7f bd 9b 55 83 bc 07 33 68 bc
       0.026875049 -0.062296763 -0.01603203 -0.014172322
000120 31 78 e7 bd 25 c4 94 3e 64 f7 0c 3e 51 1f 55 3e
       -0.113022216 0.29055896 0.13766247 0.20812728
000130 8d f1 19 3e 44 94 e2 3d 29 33 dc 3d f2 ba d7 3d
       0.1503355 0.11063436 0.107519455 0.10533704
000140 0e 59 3e 3e 71 c5 c5 3e 4e 95 0a 3f 2b 9c 01 3e
       0.18588659 0.38627198 0.5413407 0.1265723
000150 77 f8 3e 3d ef 4a d6 3d 0f 7a 8f 3e b4 73 88 be
       0.046623673 0.10463511 0.2802281 -0.26650774
000160 29 62 45 3e b3 55 63 bd ab dd 8c bd 9e 71 b9 bd
       0.19275726 -0.05550165 -0.06878217 -0.09054874
000170 f3 9a 2b 3e c9 64 1b 3e 38 36 43 3e 7f 71 ba 3e
       0.16758327 0.15175165 0.19063652 0.36414716
000180 75 27 ba 3e af c4 5f 3e 1f d0 18 3e 45 0d c7 bd
       0.36358228 0.21852373 0.14923142 -0.09719328
000190 14 b0 db 3d c7 e8 f3 bc fb 4d 98 3e 69 57 30 3e
       0.107269436 -0.029774083 0.29746994 0.17220844
0001a0 97 c4 dc 3d 37 5f 64 be 63 d1 89 3d 06 d6 d4 3e
       0.10779684 -0.22301947 0.067293905 0.41569537
0001b0 ea f4 b6 be 2f 7f 27 3e ef b4 60 3e aa 1b 56 3e
       -0.3573373 0.1635711 0.2194402 0.2090899
0001c0 03 1f 89 3e f4 a9 b9 3e 41 35 7d be 3f f0 02 be
       0.26781473 0.36262476 -0.24727346 -0.12786959
0001d0 81 c0 c4 3e 69 82 18 3e 9c 85 28 3e 7b c4 fd bc
       0.3842812 0.14893498 0.16457218 -0.030977478
0001e0 f2 e2 f3 bd 6b c0 9a 3e 76 68 a9 3d d6 20 15 3e
       -0.11908521 0.30224928 0.082718775 0.14563307
0001f0 45 63 a2 3e c5 d8 b1 3d e8 bd 54 be 04 cd 17 3e
       0.31716362 0.08683924 -0.20775568 0.14824301
000200 83 1e fe 3d 13 a7 bf 3e 9e 83 57 3e 04 42 02 3e
       0.124081634 0.37432155 0.21046302 0.12720495
000210 ac 9b 73 3d 1a 95 f4 bd d9 33 9f bd 73 59 53 3e
       0.059474632 -0.11942501 -0.07773561 0.20639591
000220 ba f5 bd be 04 33 85 3e 87 e1 93 3e 4c d0 37 3d
       -0.37101537 0.26015484 0.28883 0.04487638
000230 fd 69 84 3d 21 03 66 be 4b 76 1b 3e 73 44 15 3e
       0.06465528 -0.22462131 0.15181844 0.14576893
000240 ac 86 88 3e ea 1e 6b 3e 96 97 2a 3f 0c 66 89 3e
       0.26665246 0.22961012 0.6663755 0.26835668
000250 aa 98 30 be cd 28 11 3d 8a 96 6a 3e 76 f2 00 bc
       -0.17245737 0.0354393 0.22908989 -0.007870307
000260 be f5 e3 3d 4e 5e 39 be 7e e5 04 be 2a 53 4f 3d
       0.11130856 -0.1810238 -0.1297817 0.05061642
000270 64 6f 00 3e 6a c2 b1 bd 5f f7 30 3e fa b7 f0 3c
       0.12542492 -0.0867966 0.17281865 0.029384602
000280 cb 11 f0 bd c9 be c3 3d 87 7e 60 3e 7c 52 b8 3d
       -0.11722144 0.09557874 0.21923266 0.09000108
000290 67 3c 95 be 5f 2b ae 3c 0d 9a a8 3e a7 04 1d 3e
       -0.29147646 0.021260915 0.3293003 0.15333806
0002a0 26 02 19 3e e9 32 35 be 00 0a 57 bd 29 31 d8 3e
       0.14942226 -0.17695202 -0.05249977 0.42225006
0002b0 f2 68 53 be a6 a8 48 3e 01 8e 4c 3e c4 fc 35 3e
       -0.20645502 0.19595584 0.19976045 0.17772204
0002c0 5a 37 16 3f ea 99 ec 3e 26 5a 87 be 15 ea 9b 3d
       0.5867821 0.46211177 -0.26435965 0.07613007
0002d0 55 a9 c9 3e 26 ec 01 be a9 0b 38 3e c2 50 04 3f
       0.39387003 -0.1268774 0.17973198 0.51685727
0002e0 77 98 5d be 6b 3a 69 3d 08 63 c0 3d 7a 4e 09 3d
       -0.21640192 0.056940477 0.09393889 0.033522107
0002f0 f5 49 15 3e 09 88 36 3e 69 64 16 be 8f 59 14 3e
       0.14578994 0.17825331 -0.14686741 0.14487289
000300 0b c9 92 3c 8d a1 20 3e 64 37 de 3d ec a2 67 3e
       0.01791813 0.15686627 0.10850409 0.22620744
000310 52 69 fc 3c ef 30 10 be 28 99 36 3e 26 dd 52 be
       0.03081194 -0.14081167 0.17831862 -0.20592174
000320 cc 2d 12 be e2 28 37 3e ff 20 44 3c b5 24 f1 3e
       -0.14275283 0.1788669 0.0119707575 0.47098318
000330 35 94 38 3e 17 27 e0 3e 98 3e 2d 3e 31 dc 20 3e
       0.18025286 0.43779823 0.16918409 0.15708996
000340 38 13 34 3d 67 77 70 3e 93 16 07 be 59 ce 5d 3e
       0.04396364 0.23483048 -0.13192205 0.21660747
000350 bb 9b 7d be c6 d6 e5 3d 70 d7 2b 3f 1e 2d b5 3e
       -0.24766438 0.112226054 0.67125607 0.35385984
000360 3f f8 ad 3d 14 5d 3a be a3 0a 95 be a6 66 3a be
       0.08494615 -0.18199569 -0.29109678 -0.1820322
000370 cb 21 a3 3e bf 69 03 3e 59 17 31 3e 8c b4 c7 3e
       0.3186172 0.12833308 0.17294063 0.39004934
000380 ea b1 53 bd d8 ad 5d 3e 8e 4c 91 3e 27 40 c6 3d
       -0.051683344 0.21648347 0.2837872 0.09680205
000390 43 d5 31 be de 28 a7 be 36 ca 2e 3e 36 22 99 3d
       -0.17366509 -0.32648367 0.17069325 0.07477228
0003a0 e2 8e 8d 3e 28 5b 80 be f1 f3 46 be 3c d4 dc 3e
       0.27648073 -0.25069547 -0.19428994 0.43130672
0003b0 25 91 34 3d d0 05 18 3e 92 74 42 3d 4d 57 83 3e
       0.044083733 0.14845967 0.04747445 0.25652543
0003c0 36 63 8b 3e 5d 36 13 3e a0 34 b1 bd c0 8d f0 bd
       0.2722413 0.14376207 -0.086526155 -0.11745787
0003d0 b4 5b 59 be e5 d8 27 3e 9e cc e9 3d 03 67 e9 3e
       -0.21226388 0.16391332 0.11415981 0.45586404
0003e0 80 fa b7 3b ce 9c f0 3d aa 43 8c 3e 61 19 d5 3e
       0.0056145787 0.11748658 0.27395374 0.41620925
0003f0 35 e6 c1 3e 5f 5c 49 3e 51 0c b7 bc 28 41 44 3e
       0.37870947 0.19664143 -0.02234474 0.1916548

fc3.bias f4 [4]
000000 9d 6c 4d 3e 27 79 84 3e 37 fa 73 3e a6 30 3e 3e
       0.20060964 0.25873682 0.23825918 0.18573245
