Project1-Navigation/duelingdqn.pth (torch_old, 28997 bytes, 7 tensors)

fc1.weight f4 [64, 37]
0.007601817 -0.08483994 0.026142223 -0.0024590457 0.086753055 0.24314326 -1.0348324 0.027689025
-0.4827613 -2.1979845 0.027714584 0.063244954 0.04719462 0.03161228 -0.08059826 -0.08989754
0.13939169 0.052458413 0.0457521 0.14488745 0.056056477 0.14764474 -0.002033491 0.114277914
-0.08274678 0.035952687 0.02827618 0.10256938 0.07544285 0.015116348 -0.03598212 0.096010536
0.02226839 0.062537625 -0.17083736 0.022807995 0.02831345 0.0362929 0.08451677 0.039140545
0.15727204 0.16483954 -0.070902884 -0.05980068 -0.03054216 0.07780626 0.21752833 -0.06978999
-0.19973414 0.047545023 0.12024253 0.07649495 0.01791945 0.17124979 0.035322845 0.008484143
-0.2731936 0.17120735 0.007383443 -0.13943815 0.05965803 -0.23416893 0.3027996 -0.18254583
-0.09658188 -0.4646529 -0.654772 -0.043045253 0.09405131 -0.12992969 -0.004696565 0.0149463015
0.049294267 0.01028438 -0.107672036 0.05952433 0.020247344 0.032449193 -0.011316518 -0.1431249
0.0596206 -0.030629253 0.059873115 0.061314516 -0.07381621 0.07934984 0.1679482 0.114186324
0.33774582 -0.14083335 -0.040914476 0.07547317 -0.08054596 0.168191 0.07189193 0.05648477
0.005839163 -0.027405132 0.04799794 -0.0008496681 0.062910125 0.0029182395 -0.009590061 -0.15460701
0.2761318 -0.2892436 -0.3238648 -0.28974938 -1.3094128 -0.033037506 -0.0015409745 -0.04831028
-0.25550336 -0.05985879 0.13895324 -0.12737276 -0.02874944 -0.27780733 0.14536442 -0.2882354
0.28423375 -0.014893212 -0.27005434 -0.045339942 -0.13837938 -0.26908734 0.19851385 -0.11158905
0.0110428985 -0.44142947 0.013874221 -0.002908079 -0.04923643 -0.079498395 -0.047198042 0.0784451
-0.06447874 -0.21916242 -0.011971394 -0.15947619 -0.037207402 -0.017485587 -0.19874291 -0.010221579
0.23195024 0.075780965 -0.15487806 0.012130521 -0.04309851 -0.015192338 0.0002420916 0.005769477
0.07756649 0.053503614 0.116835594 0.13681233 0.21858732 0.12399183 0.17843357 0.070852205
0.0592341 -0.028189784 -0.26377106 0.09129269 0.118298076 0.09056021 0.09808047 0.04858655
0.33614102 0.08599943 -0.23178338 -0.19850828 -1.4589677 -0.050772276 0.17594562 0.0558927
0.07066666 -0.09263724 0.061805498 0.08610202 -0.018376542 0.034463465 0.07213544 -0.027059855
-0.0012080269 0.29577145 -0.31902862 -0.06680799 -0.25081325 -0.55828625 -0.11248339 -0.11046704
-0.22572672 -0.15600272 0.08702555 -0.35362333 0.14651643 -0.32020378 0.06190991 0.031819906
-0.069877855 -0.15456626 -0.14250848 -0.10869427 -0.057893608 0.07110641 -0.12709911 -0.26863626
-0.5187862 0.13668965 -0.006521102 0.014173384 -0.27655295 0.1321073 0.06069077 0.017359098
0.038248193 0.0011794232 0.09486236 0.009219261 -0.061717104 -0.09484312 -0.24947909 0.070260175
-0.016171483 -0.023157768 0.2253329 0.06302745 0.0451789 -0.17862996 -0.014115428 -0.03531792
-0.119849935 -0.0135380905 -0.027888404 0.21142548 0.11635824 0.07684742 -0.09571561 -0.04504567
0.08244457 0.3647811 0.052431237 -0.15140894 0.04483717 0.15999357 0.44952735 0.038798533
0.07932534 0.2115233 0.1869783 0.16889791 -0.12633672 -0.15981905 -0.05582612 -0.060211483
00000000: aa18 f93b 90c0 adbd 3728 d63c f127 21bb
00000010: 96ab b13d 8cfa 783e 6375 84bf 18d4 e23c
00000020: 7d2c f7be c7ab 0cc0 b209 e33c 9286 813d
00000030: 254f 413d e17b 013d b310 a5bd 341c b8bd
00000040: b2bc 0e3e a2de 563d 8e66 3b3d 605d 143e
00000050: 7a9b 653d 2f30 173e 5144 05bb 8a0a ea3d
00000060: 2577 a9bd 2043 133d 73a3 e73c e50f d23d
00000070: c881 9a3d 8faa 773c fd61 13bd 2ca1 c43d
00000080: 336c b63c ba13 803d fdef 2ebe d5d7 ba3c
00000090: 9cf1 e73c dda7 143d 2117 ad3d d651 203d
000000a0: ec0b 213e b2cb 283e 8835 91bd 8ff1 74bd
000000b0: 8d33 fabc e358 9f3d bfbf 5e3e 0eee 8ebd
000000c0: 1b87 4cbe 92be 423d b741 f63d 62a9 9c3d
000000d0: cfcb 923c 1b5c 2f3e b0ae 103d 1301 0b3c
000000e0: 08e0 8bbe fb50 2f3e cff0 f13b e0c8 0ebe
000000f0: fa5b 743d fbc9 6fbe 8d08 9b3e 4bed 3abe
00000100: b8cc c5bd fce6 edbe 239f 27bf 3850 30bd
00000110: f99d c03d 4a0c 05be a5e5 99bb 55e1 743c
00000120: c9e8 493d d17f 283c 2883 dcbd c9cf 733d
00000130: c2dd a53c 72e9 043d eb68 39bc 558f 12be
00000140: bb34 743d 33ea fabc 833d 753d ee24 7b3d
00000150: f42c 97bd 2b82 a23d 9dfa 2b3e 85da e93d
00000160: 05ed ac3e 9e36 10be f095 27bd ad91 9a3d
00000170: 48f5 a4bd 433a 2c3e 143c 933d 935c 673d
00000180: 7356 bf3b ba80 e0bc 7d99 443d 43bc 5eba
00000190: 06d7 803d ef3f 3f3b a21f 1dbc 4d51 1ebe
000001a0: 2661 8d3e bd17 94be 9bd1 a5be 085a 94be
000001b0: d79a a7bf 5652 07bd 86fa c9ba 00e1 45bd
000001c0: 56d1 82be 7e2e 75bd c249 0e3e 016e 02be
000001d0: f283 ebbc c33c 8ebe 69da 143e 9793 93be
000001e0: 1687 913e a902 74bc 9044 8abe 60b6 39bd
000001f0: 53b3 0dbe d1c5 89be 3747 4b3e cd88 e4bd
00000200: 46ed 343c 0b03 e2be b350 633c 7895 3ebb
00000210: 24ac 49bd 0ed0 a2bd bc52 41bd d3a7 a03d
00000220: 6e0d 84bd 1d6c 60be aa23 44bc ba4d 23be
00000230: ca66 18bd ef3d 8fbc 4383 4bbe 6978 27bc
00000240: 5d84 6d3e 0d33 9b3d 5b98 1ebe 18bf 463c
00000250: 1088 30bd 49e9 78bc f8d9 7d39 e20d bd3b
00000260: 2edb 9e3d 9b26 5b3d 8047 ef3d 8818 0c3e
00000270: 5bd5 5f3e 6eef fd3d 4ab7 363e f61a 913d
00000280: 759f 723d 43ee e6bc 000d 87be a9f7 ba3d
00000290: 4346 f23d a277 b93d 6ade c83d b102 473d
000002a0: ad1a ac3e 7820 b03d 9f58 6dbe c145 4bbe
000002b0: 74bf babf 97f6 4fbd 172b 343e beef 643d
000002c0: afb9 903d 98b8 bdbd c327 7d3d 4256 b03d
000002d0: 678a 96bc 9029 0d3d bfbb 933d a1ac ddbc
000002e0: a856 9eba 5b6f 973e b857 a3be a1d2 88bd
000002f0: 986a 80be d9eb 0ebf b15d e6bd 8b3c e2bd
00000300: e824 67be 2dbf 1fbe 743a b23d 1e0e b5be
00000310: 6708 163e c0f1 a3be 3f95 7d3d 9755 023d
00000320: 1f1c 8fbd 9e46 1ebe beed 11be 1a9b debd
00000330: d921 6dbd 3da0 913d 4526 02be b18a 89be
00000340: 2ccf 04bf 5ff8 0b3e f8ae d5bb 7b37 683c
00000350: 5998 8dbe 2347 073e e396 783d ab34 8e3c
00000360: 23aa 1c3d e096 9a3a 3247 c23d 620c 173c
00000370: 13cb 7cbd 1c3d c2bd 7277 7fbe 91e4 8f3d
00000380: 0f7a 84bc 5cb5 bdbc abbd 663e 8914 813d
00000390: 830d 393d c6ea 36be 6544 67bc 86a9 10bd
000003a0: e273 f5bd dece 5dbc 3976 e4bc ec7f 583e
000003b0: 3b4d ee3d 2e62 9d3d 8c06 c4bd cf81 38bd
000003c0: b3d8 a83d 97c4 ba3e 23c2 563d f20a 1bbe
000003d0: 2ea7 373d 5bd5 233e 7328 e63e 36eb 1e3d
000003e0: 5375 a23d 9099 583e 3d77 3f3e 93f3 2c3e
000003f0: 6a5e 01be 9ba7 23be eea9 64bd 51a0 76bd

fc1.bias f4 [64]
0.078206256 0.046992924 0.03495954 -0.060748287 -0.07213598 0.03513425 -0.19415694 0.08443872
-0.028634345 0.08339164 -0.09129819 0.09165841 0.14518751 -0.086438626 0.118296966 -0.14231417
0.095969334 -0.081091344 -0.031396087 -0.09113942 0.07188505 -0.13122185 -0.14875562 -0.0175578
-0.06607669 -0.075029306 0.04719646 0.1759992 -0.1376761 0.17117023 -0.034543075 -0.108734906
-0.16011152 0.0025131276 0.060900684 0.054487143 -0.067039974 -0.032229826 0.033686623 0.09576785
0.035346523 0.105265334 0.022779297 0.15252757 -0.1376592 -0.13644359 0.10070114 0.041350126
0.09829314 -0.018497989 -0.03818059 -0.14512026 -0.033682857 -0.19288243 -0.012681464 0.048559066
-0.09541308 -0.05175768 -0.044452056 0.13279496 -0.15916692 -0.080193974 0.15152445 0.03144747
00000000: 9a2a a03d a77b 403d bc31 0f3d 32d3 78bd
00000010: 07bc 93bd eee8 0f3d 14d1 46be 35ee ac3d
00000020: 9392 eabc 3cc9 aa3d 8cfa babd 68b7 bb3d
00000030: 09ac 143e bc06 b1bd ae45 f23d ceba 11be
00000040: 928b c43d 3813 a6bd 2f99 00bd 4ea7 babd
00000050: 7838 933d 055f 06be 6553 18be 60d5 8fbc
00000060: 3753 87bd f7a8 99bd 1351 413d 2239 343e
00000070: f7fa 0cbe 4047 2f3e 0a7d 0dbd 68b0 debd
00000080: 46f4 23be 49b3 243b ff72 793d e92d 5f3d
00000090: 414c 89bd 6c03 04bd fcfa 093d ef21 c43d
000000a0: 84c7 103d 5a95 d73d a69b ba3c 3030 1c3e
000000b0: 89f6 0cbe deb7 0bbe 663c ce3d c05e 293d
000000c0: ea4d c93d 1889 97bc 4063 1cbd 689a 14be
000000d0: 09f7 09bd f982 45be eac5 4fbc dfe5 463d
000000e0: ef67 c3bd dcff 53bd 5c13 36bd 67fb 073e
000000f0: a7fc 22be bd3c a4bd 3a29 1b3e 10cf 003d

fc2.weight f4 [64, 64]
-0.29236174 0.09730469 0.07243432 0.11593705 -0.00423744 0.15712005 0.03461804 -0.038023397
0.18023042 -0.038367372 0.034915414 -0.04686125 -0.038600683 -0.17677654 0.17965624 -0.008898035
-0.07079848 0.08854247 0.09430406 -0.4166597 0.29896364 -0.14900461 -0.009646863 -0.032962076
0.037346244 -0.008494772 0.04805579 -0.06805402 -0.082519636 -0.08673261 -0.011128021 0.025813255
0.06421155 0.12043624 0.056985606 -0.033714097 -0.02065636 -0.17564437 -0.29952514 -0.18621683
-0.016983055 0.42175555 0.3283326 -0.04264532 -0.17982714 0.013790223 -0.13785216 0.036008812
-0.03806885 0.3862403 0.010885535 0.032991122 -0.10056095 -0.1756771 -0.036344714 0.06926801
0.046949416 0.07033442 0.0023739808 -0.034432102 0.008691989 0.02007061 0.22627029 -0.027244344
0.19594449 -0.30899724 -0.044798963 -0.015713539 -0.21307293 0.10247304 0.043831605 -0.010584971
-0.14096886 -0.04487905 -0.060786836 -0.2467973 -0.11779229 -0.052129764 0.036601044 0.1069112
0.026316075 -0.23327819 0.06304315 0.03235445 0.019893792 -0.16276681 -0.18223643 -0.059923034
-0.0922123 -0.22122283 -0.0831597 0.06796107 0.0038592156 -0.1395904 -0.09475547 -0.046857774
-0.022555893 -0.020567115 -0.1043488 0.044877898 -0.040652 -0.29603684 0.10840708 0.19501343
-0.17852676 -0.19548048 0.13068838 -0.07942878 -0.22953784 -0.08529358 -0.13514425 0.08087103
0.060013406 -0.13280983 0.09940984 -0.026140768 -0.22187743 -0.052975956 0.11649617 -0.16793211
-0.037851542 -0.079843186 -0.2839003 0.057123173 -0.09784844 0.055937942 0.08262335 0.1413676
-0.003752556 -0.08889974 0.07271681 -0.041120473 0.0125376955 -0.43390352 -0.17069547 -0.2971757
-0.08179522 0.1275656 -0.26741213 -0.34897932 0.018531863 -0.104833096 0.19187783 -0.06067334
-0.1826196 -0.14302157 -0.14376974 -0.12682047 0.060511645 0.24951005 -0.3401099 -0.04097698
-0.27925777 -0.064059734 0.21879715 -0.07428787 -0.37186614 0.044926878 0.030354356 -0.044719584
0.038995728 0.09731338 -0.051108256 -0.20461743 0.058415834 -0.062169347 0.053714864 -0.10049203
-0.15194899 -0.07938114 -0.023590105 0.07488901 0.047456134 -0.29658368 0.12669672 0.03842263
-0.2796757 -0.44861048 0.1647767 -0.11836401 0.08504543 -0.024914226 -0.023770755 0.14374685
-0.13550627 0.20894311 -0.1877406 1.0159968e-05 -0.38452575 0.13859497 -0.043904528 -0.27538735
0.03831323 -0.17055282 0.11357026 -0.02275422 0.059824366 0.065834865 -0.07526264 0.006306107
0.0616596 0.05796349 -0.041291617 0.029640168 0.07276688 0.010409957 0.04313251 -0.056963537
0.039987214 -0.17744525 -0.1344067 -0.14037922 0.449656 0.017198442 -0.118868314 -0.1547038
0.07021682 0.034504186 -0.07762651 0.049329136 0.01711571 -0.018747251 0.06412826 0.023284173
-0.14155231 -0.14747435 0.042015087 -0.118137985 0.020559644 0.13238852 -0.01230095 0.259848
-0.12517634 0.29967466 -0.28011218 0.022942532 0.12134391 -0.0007803873 -0.08157 0.11352236
-0.031693663 -0.14480208 0.086739294 -0.027545637 -0.021911412 -0.12199943 -0.08882771 -0.06350309
0.06654749 0.036764417 -0.110156864 -0.097270936 -0.0050687473 0.09432941 -0.10067823 0.04309594
00000000: 70b0 95be ae47 c73d 7258 943d 6770 ed3d
00000010: 39da 8abb 14e4 203e a5cb 0d3d 6cbe 1bbd
00000020: 538e 383e 1b27 1dbd 7703 0f3d 95f1 3fbd
00000030: c01b 1ebd e904 35be cef7 373e 10c9 11bc
00000040: cbfe 90bd c155 b53d 7d22 c13d 6c54 d5be
00000050: c311 993e aa94 18be e00d 1ebc 3e03 07bd
00000060: 60f8 183d a82d 0bbc 26d6 443d e85f 8bbd
00000070: 0e00 a9bd dea0 b1bd 4e52 36bc 5276 d33c
00000080: 5881 833d 47a7 f63d bd69 693d cb17 0abd
00000090: 8737 a9bc 1edc 33be 5c5b 99be a0af 3ebe
000000a0: 0c20 8bbc 58f0 d73e 361b a83e dcac 2ebd
000000b0: 9b24 38be 63f0 613c 1e29 0dbe fa7d 133d
000000c0: 15ee 1bbd 4ac1 c53e 3e59 323c b321 073d
000000d0: e6f2 cdbd b3e4 33be 32de 14bd 63dc 8d3d
000000e0: 084e 403d 7e0b 903d ca94 1b3b ad08 0dbd
000000f0: d868 0e3c 1f6b a43c 66b3 673e 882f dfbc
00000100: aca5 483e e334 9ebe 1e7f 37bd aeb9 80bc
00000110: ca2f 5abe 63dd d13d c588 333d 966c 2dbc
00000120: 245a 10be 18d3 37bd 9efb 78bd 6eb8 7cbe
00000130: 163d f1bd 0586 55bd faea 153d 42f4 da3d
00000140: cf94 d73c 7ae0 6ebe c41c 813d 1a86 043d
00000150: 4ef8 a23c 58ac 26be 309c 3abe db71 75bd
00000160: cdd9 bcbd 3d88 62be a24f aabd 2c2f 8b3d
00000170: e5ea 7c3b c9f0 0ebe 280f c2bd f0ed 3fbd
00000180: 23c7 b8bc 5e7c a8bc d3b4 d5bd e3d1 373d
00000190: b682 26bd 2492 97be 8804 de3d 9ab1 473e
000001a0: b8cf 36be 092c 48be 2dd3 053e 8eab a2bd
000001b0: f80b 6bbe 67ae aebd 4163 0abe b69f a53d
000001c0: 9ed0 753d 4dff 07be 6397 cb3d 2a25 d6bc
000001d0: d633 63be 51fd 58bd 8b95 ee3d 65f6 2bbe
000001e0: 380a 1bbd d384 a3bd 615b 91be fdf9 693d
000001f0: c364 c8bd 2f1f 653d 6e36 a93d abc2 103e
00000200: 71ed 75bb 1111 b6bd 8dec 943d f16d 28bd
00000210: e86a 4d3c 9a28 debe cbca 2ebe 6a27 98be
00000220: 4184 a7bd 8fa0 023e 3eea 88be 6bad b2be
00000230: 22d0 973c bcb2 d6bd 9f7b 443e 9c84 78bd
00000240: a200 3bbe 3f74 12be 6038 13be 3add 01be
00000250: 0fdb 773d 907f 7f3e e322 aebe 7ad7 27bd
00000260: e0fa 8ebe c031 83bd 5c0c 603e 3d24 98bd
00000270: 3d65 bebe 3f05 383d b3a9 f83c e22b 37bd
00000280: fcb9 1f3d 3d4c c73d e456 51bd 3b87 51be
00000290: 7145 6f3d 49a5 7ebd 1e04 5c3d c4ce cdbd
000002a0: 8498 1bbe 9492 a2bd 0940 c1bc 695f 993d
000002b0: 5d61 423d d1d9 97be c9bc 013e 0c61 1d3d
000002c0: a731 8fbe 46b0 e5be 39bb 283e d468 f2bd
000002d0: 4c2c ae3d eb18 ccbc e3ba c2bc 6032 133e
000002e0: 28c2 0abe 2ff5 553e 123f 40be bb74 2a37
000002f0: 8fe0 c4be d7eb 0d3e 3cd5 33bd 92ff 8cbe
00000300: 55ee 1c3d 66a5 2ebe 8697 e83d 0f67 babc
00000310: 650a 753d 6ed4 863d 4d23 9abd 76a3 ce3b
00000320: c78e 7c3d 206b 6d3d 6621 29bd f0cf f23c
00000330: cd06 953d 868e 2a3c b7ab 303d 9952 69bd
00000340: a2c9 233d 35b4 35be e9a1 09be 92bf 0fbe
00000350: 5039 e63e bfe3 8c3c 3b71 f3bd ac6a 1ebe
00000360: d6cd 8f3d 4354 0d3d a6fa 9ebd 590d 4a3d
00000370: 3f36 8c3c d693 99bc ad55 833d 73be be3c
00000380: 17f3 10be 8403 17be 0318 2c3d 54f2 f1bd
00000390: b36c a83c db90 073e ec89 49bc cc0a 853e
000003a0: 3a2e 00be f56e 993e dd6a 8fbe faf1 bb3c
000003b0: 2883 f83d e892 4cba 2c0e a7bd 697e e83d
000003c0: 37d1 01bd ff46 14be 5fa4 b13d 63a7 e1bc
000003d0: 907f b3bc d6da f9bd 4deb b5bd e80d 82bd
000003e0: 0d4a 883d 4996 163d ec99 e1bd fc35 c7bd
000003f0: bc17 a6bb c72f c13d 6330 cebd 5e85 303d

fc2.bias f4 [64]
-0.009766315 -0.1314692 0.04158953 -0.039185353 -0.006817871 -0.08362026 -0.0601077 0.061465096
-0.03333152 -0.144302 -0.060842533 -0.055235278 -0.09060145 0.0007456473 0.052973628 0.09317702
-0.0808042 -0.11223123 -0.13926788 -0.10089648 -0.07718206 -0.03927986 -0.07899112 -0.02986865
0.008064675 -0.07468236 -0.19047888 -0.07637643 -0.06272252 0.06480812 -0.06447498 0.064642765
0.062481515 0.007943377 -0.05641957 0.04465326 -0.18580377 0.031471368 -0.011073589 -0.05433228
0.08339815 0.0065542683 -0.06633193 0.11193347 0.051765475 0.07985151 -0.08917296 -0.0815433
-0.059577554 -0.11993339 -0.18718329 -0.102344826 -0.040082563 0.06335255 0.16995864 -0.054445673
-0.12447544 0.08095977 -0.054376353 -0.018808292 -0.12020937 0.06546797 -0.07447025 0.12888888
00000000: e502 20bc dd9f 06be c859 2a3d d280 20bd
00000010: 7268 dfbb 1941 abbd 7e33 76bd d3c2 7b3d
00000020: a286 08bd e7c3 13be 0536 79bd 633e 62bd
00000030: 418d b9bd 8b77 433a e0fa 583d 98d3 be3d
00000040: ac7c a5bd 7dd9 e5bd 3d9c 0ebe d0a2 cebd
00000050: a111 9ebd ebe3 20bd 19c6 a1bd 19af f4bc
00000060: b321 043c 11f3 98bd e50c 43be 3f6b 9cbd
00000070: aa74 80bd 1fba 843d 750b 84bd 6d63 843d
00000080: 9eec 7f3d f024 023c 3518 67bd 56e6 363d
00000090: 5843 3ebe 1fe8 003d 006e 35bc 868b 5ebd
000000a0: a6cc aa3d 30c5 d63b 09d9 87bd 603d e53d
000000b0: 0908 543d 3089 a33d 50a0 b6bd 2c00 a7bd
000000c0: 9807 74bd a39f f5bd faac 3fbe 2a9a d1bd
000000d0: 9d2d 24bd fbbe 813d a309 2e3e 6d02 5fbd
000000e0: fbec febd 3cce a53d bdb9 5ebd d913 9abc
000000f0: 5530 f6bd 1214 863d dc83 98bd 72fb 033e

value_function_fc.weight f4 [1, 64]
0.2578274 0.2046444 0.23051368 0.12642935 0.32080615 -0.27796954 -0.14224847 0.027263336
0.11924023 0.38865945 0.096429266 -0.31766132 0.11427276 -0.15764663 0.19664054 0.17598101
0.11101564 0.35366222 -0.050700344 -0.033918276 -0.107711606 -0.054088406 -0.23322563 0.2549077
0.022440474 0.16524324 -0.12765342 0.018849727 0.36070952 -0.082146615 0.16501464 0.047578655
0.102999814 0.0892008 0.12341123 -0.10668152 -0.33181864 0.09186968 0.05679219 0.0719127
-0.035428435 0.28955254 0.07398084 -0.09387475 -0.385046 0.21256253 0.01695364 0.15511605
-0.11244306 0.24674399 -0.50951755 -0.05645951 0.21814913 0.10120392 0.1110626 -0.08186642
-0.17822446 0.10063018 -0.24884854 -0.1518718 0.16035749 0.12018801 -0.21083118 0.16499601
00000000: f401 843e 4d8e 513e c70b 6c3e b276 013e
00000010: b440 a43e 0652 8ebe 95a9 11be 5c57 df3c
00000020: 3934 f43d 5ffe c63e b57c c53d 81a4 a2be
00000030: d607 ea3d 1e6e 21be 235c 493e 5e34 343e
00000040: 2b5c e33d 3713 b53e 2aab 4fbd e4ed 0abd
00000050: e797 dcbd ce8b 5dbd b3d2 6ebe 4383 823e
00000060: 16d5 b73c 8635 293e 94b7 02be be6a 9a3c
00000070: ebae b83e 7c3c a8bd 99f9 283e d6e1 423d
00000080: 91f1 d23d e9ae b63d 07bf fc3d d77b dabd
00000090: 22e4 a9be 2c26 bc3d ed9e 683d f746 933d
000000a0: 681d 11bd 3b40 943e 4483 973d 6841 c0bd
000000b0: c024 c5be fea9 593e 5ce2 8a3c bed6 1e3e
000000c0: 8c48 e6bd 75aa 7c3e be6f 02bf 1642 67bd
000000d0: 7c62 5f3e 0044 cf3d ca74 e33d 95a9 a7bd
000000e0: 7980 36be 3217 ce3d 27d2 7ebe 4884 1bbe
000000f0: c134 243e 2225 f63d 21e4 57be b7f4 283e

advantage_function_fc.weight f4 [4, 64]
0.0569859 -0.17437945 -0.3481241 0.02557886 0.16797742 -0.19368738 0.0103547685 -0.024038538
-0.011398782 0.037069634 0.031326268 0.09582199 0.23435184 -0.17463523 0.061757695 -0.004692482
-0.12833926 0.17813471 -0.16686742 0.11176693 -0.00010581172 -0.105384864 -0.3310017 0.18090765
-0.04849558 0.22914608 0.3262539 -0.24176532 -0.014542271 0.057128247 0.036654554 -0.0028119984
-0.020698639 0.061424643 -0.04070279 0.046194244 0.118046835 0.016103962 0.22033277 -0.17640008
0.07631956 0.22285703 0.029143421 0.17382975 0.3043585 0.19316219 -0.095049046 0.011445957
-0.001447972 0.097124554 0.013270449 0.08539047 0.15748318 0.024158392 0.07545708 -0.34569186
-0.02942805 -0.0041824696 -0.20644192 0.031411268 -0.049189862 -0.05615911 0.30232015 0.17462313
0.06971734 -0.09708805 0.36699647 -0.0032594898 -0.0032391567 0.12853606 0.010679019 0.004209764
0.082694724 0.22213711 0.07586259 -0.63766384 -0.386877 0.10705064 0.049010318 -0.013504745
-0.075969465 0.1456076 -0.0671827 -0.10518403 0.06833875 -0.011796072 0.018531032 0.10328395
0.07400642 0.042274002 0.020774623 0.11190237 0.2777702 0.0840335 -0.043334078 0.09656385
-0.07360366 0.06549009 0.021435522 0.036492705 0.2783995 0.09948432 0.21940143 -0.19730428
-0.014351504 0.27847666 -0.0118852025 0.25625557 -0.6126311 0.17280042 0.013211484 0.34906104
-0.018950412 0.14770278 0.5048883 0.08835549 -0.018666346 0.11931291 0.053391773 -0.10309345
-0.03449305 -0.014557774 -0.1727913 0.066438906 0.28826585 -0.030929709 -0.39793295 0.034480758
-0.0337462 0.1758901 0.0032663448 -0.07752421 0.06588283 0.07195133 -0.29291183 -0.10731827
0.062440235 -0.15252872 0.21315812 0.13791981 0.17956373 0.10034851 0.24753663 -0.022471014
0.18619262 0.03820237 -0.07214181 -0.067256965 0.028669246 -0.11256663 -0.3172233 0.24750455
-0.07384806 0.086044446 -0.006223341 0.15844719 0.38646075 0.04601474 0.17122887 -0.34593436
0.036867384 0.08018114 -0.2667022 -0.19555232 -0.3921004 0.05019062 -0.18084198 0.2075602
0.003988324 -0.22475316 0.14660409 -0.15154074 0.21777633 -0.004705538 0.23176074 -0.2440363
-0.09790304 0.08650745 -0.19736212 -0.08214742 -0.005520659 0.1448602 0.09298222 0.08993067
-0.0692113 0.075573124 0.1447969 0.14817832 0.22589889 -0.02349933 0.20790829 -0.10665906
0.10578947 0.099932306 -0.11084758 0.21049307 0.008057125 -0.32519618 0.060813192 0.11523328
0.06888836 0.3227481 0.16907632 0.16977507 -0.0019113353 0.016497303 0.11610524 -0.005061819
-0.035313178 0.11630848 0.22865367 0.17051828 -0.1160043 -0.14513625 -0.32346895 0.021750491
0.07793849 -0.5381077 -0.09009317 0.14303939 -0.32642508 -0.23917443 -0.0422319 0.0009037053
0.096313 0.06594638 0.43962303 0.023276482 -0.37191838 -0.10354034 -0.10567519 0.19004567
-0.11248499 0.16131854 0.0058696484 -0.10000063 0.2795174 0.12361745 -0.40277874 -0.2884138
-0.055029206 0.120453484 -0.2465368 0.19770813 -0.11627115 -0.06743379 0.078929275 0.015483119
0.11988119 -0.038215335 -0.37863263 -0.29984504 -0.2780803 0.048199613 0.2341651 -0.01149966
00000000: 0c6a 693d 8790 32be 523d b2be c28a d13c
00000010: 4602 2c3e fc55 46be 0ca7 293c 78ec c4bc
00000020: f5c1 3abc 54d6 173d f94f 003d 523e c43d
00000030: eef9 6f3e 94d3 32be a3f5 7c3d 64c3 99bb
00000040: 5e6b 03be f268 363e 4bdf 2abe 0fe6 e43d
00000050: 3ce7 ddb8 05d4 d7bd 0e79 a9be db3f 393e
00000060: 4da3 46bd 45a5 6a3e c00a a73e 5491 77be
00000070: b542 6ebc 4fff 693d 1623 163d 8149 38bb
00000080: 3190 a9bc 6898 7b3d f8b7 26bd 2d36 3d3d
00000090: 8ac2 f13d 75ec 833c ea9e 613e 39a2 34be
000000a0: 6e4d 9c3d a234 643e 2fbe ee3c 6d00 323e
000000b0: e1d4 9b3e 4fcc 453e 13a9 c2bd d387 3b3c
000000c0: e1c9 bdba 3de9 c63d 4c6c 593c 33e1 ae3d
000000d0: 4543 213e d2e7 c53c 3e89 9a3d 86fe b0be
000000e0: 1813 f1bc 190d 89bb 8365 53be 1aa9 003d
000000f0: 4f7b 49bd 1807 66bd b5c9 9a3e 68d0 323e
00000100: f7c7 8e3d 19d6 c6bd f6e6 bb3e 2a9d 55bb
00000110: 0848 54bb f59e 033e 0df7 2e3c 0ff2 893b
00000120: da5b a93d e977 633e d85d 9b3d f03d 23bf
00000130: be14 c6be 5e3d db3d 0bbf 483d 0243 5dbc
00000140: e195 9bbd 291a 153e 1597 89bd ba6a d7bd
00000150: 30f5 8b3d 5044 41bc 64ce 973c 8986 d33d
00000160: ae90 973d 8127 2d3d 8b2f aa3c 122d e53d
00000170: e537 8e3e c119 ac3d 137f 31bd 45c3 c53d
00000180: 84bd 96bd ab1f 863d 8c99 af3c 6079 153d
00000190: 618a 8e3e 6fbe cb3d c5aa 603e 220a 4abe
000001a0: 9222 6bbc 7e94 8e3e 27ba 42bc ee33 833e
000001b0: 64d5 1cbf 98f2 303e fb74 583c 21b8 b23e
000001c0: e53d 9bbc 663f 173e 5c40 013f b9f3 b43d
000001d0: 2aea 98bc 545a f43d 55b1 5a3d a922 d3bd
000001e0: 9648 0dbd bb83 6ebc 34f0 30be 1f11 883d
000001f0: 9597 933e 4d60 fdbc debd cbbe b23b 0d3d
00000200: 7539 0abd 891c 343e 2c10 563b 03c5 9ebd
00000210: 94ed 863d 385b 933d 8af8 95be aec9 dbbd
00000220: 55c1 7f3d 7d30 1cbe 1f46 5a3e da3a 0d3e
00000230: 8edf 373e 8583 cd3d 3e7a 7d3e 2215 b8bc
00000240: 47a9 3e3e 177a 1c3d 16bf 93bd 05be 89bd
00000250: c4db ea3c 5589 e6bd 186b a2be d571 7d3e
00000260: a73d 97bd 1238 b03d 2bed cbbb fb3f 223e
00000270: 2fde c53e f479 3c3d 9f56 2f3e 4f1e b1be
00000280: 4102 173d 0236 a43d 318d 88be de3e 48be
00000290: 62c1 c8be ae94 4d3d a42e 39be a98a 543e
000002a0: 7db0 823b b125 66be 621f 163e 7f2d 1bbe
000002b0: c200 5f3e ea30 9abb b052 6d3e a7e4 79be
000002c0: 6481 c8bd d12a b13d 4c19 4abe e83c a8bd
000002d0: a5e6 b4bb 3b56 143e 766d be3d 922d b83d
000002e0: a7be 8dbd 15c6 9a3d a345 143e 0fbc 173e
000002f0: 0a52 673e ab81 c0bc e9e5 543e 1170 dabd
00000300: 26a8 d83d 4fa9 cc3d 0e04 e3bd 7f8b 573e
00000310: 0802 043c 1d80 a6be 4117 793d 6dff eb3d
00000320: 5715 8d3d 3d3f a53e 5822 2d3e 84d9 2d3e
00000330: c585 faba 5a25 873c 96c8 ed3d 9edd a5bb
00000340: 8da4 10bd 2433 ee3d 3024 6a3e 589c 2e3e
00000350: aa93 edbd 999e 14be b99d a5be 162e b23c
00000360: 379e 9f3d 6dc1 09bf c582 b8bd eb78 123e
00000370: 3021 a7be 24ea 74be 5bfb 2cbd a3e6 6c3a
00000380: c03f c53d e50e 873d 4516 e13e 52ae be3c
00000390: 166c bebe f50c d4bd 3c6c d8bd 559b 423e
000003a0: 885e e6bd b030 253e 2e56 c03b 21cd ccbd
000003b0: e81c 8f3e 252b fd3d 0439 cebe f9aa 93be
000003c0: 4e66 61bd 51b0 f63d 2574 7cbe 0074 4a3e
000003d0: 921f eebd ba1a 8abd aca5 a13d e8ac 7d3c
000003e0: 4584 f53d af87 1cbd 23dc c1be 4a85 99be
000003f0: 8b60 8ebe f56c 453d fac8 6f3e 1269 3cbc

advantage_function_fc.bias f4 [4]
0.18112136 0.14925799 0.17618045 0.16884045
00000000: e177 393e 16d7 183e a668 343e 83e4 2c3e
